…
|  2057 |                    blocks.55.layers.0.pool                    |  AvgPool2d  |        0         |   664    |    0    |
|  2058 |                       classifier.linear                       |    Linear   |    (10, 664)     |   6650   |   6650  |
+-------+---------------------------------------------------------------+-------------+------------------+----------+---------+
FLOPs total: 2653556178
#Params total: 14293302
FLOPs: 2653.556M,  Params: 14.293M
elapsed time not using speedup:  8.238608837127686
Total training params: 14.29M
PyramidNet(
  (blocks): ModuleList(
    (0): TransitionBlock(
      (layers): ModuleList(
        (0): ConvLayer(
          (conv): Conv2d(3, 16, kernel_size=(3, 3), stride=(1, 1), padding=(1, 1), bias=False)
        )
        (1): IdentityLayer(
          (bn): BatchNorm2d(16, eps=1e-05, momentum=0.1, affine=True, track_running_stats=True)
        )
      )
    )
    (1): ResidualBlock(
      (cell): TreeNode(
        (edges): ModuleList(
          (0): ConvLayer(
            (bn): BatchNorm2d(18, eps=1e-05, momentum=0.1, affine=True, track_running_stats=True)
            (activation): ReLU(inplace=True)
            (conv): Conv2d(18, 18, kernel_size=(3, 3), stride=(1, 1), padding=(1, 1), groups=2, bias=False)
          )
          (1): ConvLayer(
            (bn): BatchNorm2d(18, eps=1e-05, momentum=0.1, affine=True, track_running_stats=True)
            (activation): ReLU(inplace=True)
            (conv): Conv2d(18, 18, kernel_size=(3, 3), stride=(1, 1), padding=(1, 1), groups=2, bias=False)
          )
        )
        (child_nodes): ModuleList(
          (0): TreeNode(
            (edges): ModuleList(
              (0): ConvLayer(
                (bn): BatchNorm2d(18, eps=1e-05, momentum=0.1, affine=True, track_running_stats=True)
                (activation): ReLU(inplace=True)
                (conv): Conv2d(18, 18, kernel_size=(1, 1), stride=(1, 1), bias=False)
              )
              (1): PoolingLayer(
                (pool): MaxPool2d(kernel_size=3, stride=1, padding=1, dilation=1, ceil_mode=False)
              )
            )
            (child_nodes): ModuleList(
              (0): TreeNode(
                (edges): ModuleList(
                  (0): PoolingLayer(
                    (pool): AvgPool2d(kernel_size=3, stride=1, padding=1)
                  )
                  (1): DepthConvLayer(
                    (bn): BatchNorm2d(9, eps=1e-05, momentum=0.1, affine=True, track_running_stats=True)
                    (activation): ReLU(inplace=True)
                    (depth_conv): Conv2d(9, 9, kernel_size=(7, 7), stride=(1, 1), padding=(3, 3), groups=9, bias=False)
                    (point_conv): Conv2d(9, 9, kernel_size=(1, 1), stride=(1, 1), bias=False)
                  )
                )
                (child_nodes): ModuleList(
                  (0): None
                  (1): None
                )
              )
              (1): TreeNode(
                (edges): ModuleList(
                  (0): DepthConvLayer(
                    (bn): BatchNorm2d(18, eps=1e-05, momentum=0.1, affine=True, track_running_stats=True)
                    (activation): ReLU(inplace=True)
                    (depth_conv): Conv2d(18, 18, kernel_size=(3, 3), stride=(1, 1), padding=(1, 1), groups=18, bias=False)
                    (point_conv): Conv2d(18, 18, kernel_size=(1, 1), stride=(1, 1), bias=False)
                  )
                  (1): DepthConvLayer(
                    (bn): BatchNorm2d(18, eps=1e-05, momentum=0.1, affine=True, track_running_stats=True)
                    (activation): ReLU(inplace=True)
                    (depth_conv): Conv2d(18, 18, kernel_size=(5, 5), stride=(1, 1), padding=(2, 2), groups=18, bias=False)
                    (point_conv): Conv2d(18, 18, kernel_size=(1, 1), stride=(1, 1), bias=False)
                  )
                )
                (child_nodes): ModuleList(
                  (0): None
                  (1): None
                )
              )
            )
          )
          (1): TreeNode(
            (edges): ModuleList(
              (0): DepthConvLayer(
                (bn): BatchNorm2d(18, eps=1e-05, momentum=0.1, affine=True, track_running_stats=True)
                (activation): ReLU(inplace=True)
                (depth_conv): Conv2d(18, 18, kernel_size=(5, 5), stride=(1, 1), padding=(2, 2), groups=18, bias=False)
                (point_conv): Conv2d(18, 18, kernel_size=(1, 1), stride=(1, 1), bias=False)
              )
              (1): DepthConvLayer(
                (bn): BatchNorm2d(18, eps=1e-05, momentum=0.1, affine=True, track_running_stats=True)
                (activation): ReLU(inplace=True)
                (depth_conv): Conv2d(18, 18, kernel_size=(3, 3), stride=(1, 1), padding=(1, 1), groups=18, bias=False)
                (point_conv): Conv2d(18, 18, kernel_size=(1, 1), stride=(1, 1), bias=False)
              )
            )
            (child_nodes): ModuleList(
              (0): TreeNode(
                (edges): ModuleList(
                  (0): DepthConvLayer(
                    (bn): BatchNorm2d(18, eps=1e-05, momentum=0.1, affine=True, track_running_stats=True)
                    (activation): ReLU(inplace=True)
                    (depth_conv): Conv2d(18, 18, kernel_size=(5, 5), stride=(1, 1), padding=(2, 2), groups=18, bias=False)
                    (point_conv): Conv2d(18, 18, kernel_size=(1, 1), stride=(1, 1), bias=False)
                  )
                  (1): PoolingLayer(
                    (pool): AvgPool2d(kernel_size=3, stride=1, padding=1)
                  )
                  (2): PoolingLayer(
                    (pool): AvgPool2d(kernel_size=3, stride=1, padding=1)
                  )
                )
                (child_nodes): ModuleList(
                  (0): None
                  (1): None
                  (2): None
                )
              )
              (1): TreeNode(
                (edges): ModuleList(
                  (0): PoolingLayer(
                    (pool): AvgPool2d(kernel_size=3, stride=1, padding=1)
                  )
                  (1): DepthConvLayer(
                    (bn): BatchNorm2d(18, eps=1e-05, momentum=0.1, affine=True, track_running_stats=True)
                    (activation): ReLU(inplace=True)
                    (depth_conv): Conv2d(18, 18, kernel_size=(3, 3), stride=(1, 1), padding=(1, 1), groups=18, bias=False)
                    (point_conv): Conv2d(18, 18, kernel_size=(1, 1), stride=(1, 1), bias=False)
                  )
                )
                (child_nodes): ModuleList(
                  (0): None
                  (1): None
                )
              )
            )
          )
        )
        (branch_bns): ModuleList(
          (0): BatchNorm2d(18, eps=1e-05, momentum=0.1, affine=True, track_running_stats=True)
          (1): BatchNorm2d(18, eps=1e-05, momentum=0.1, affine=True, track_running_stats=True)
        )
      )
      (in_bottle): ConvLayer(
        (bn): BatchNorm2d(16, eps=1e-05, momentum=0.1, affine=True, track_running_stats=True)
        (conv): Conv2d(16, 18, kernel_size=(1, 1), stride=(1, 1), bias=False)
      )
      (out_bottle): ConvLayer(
        (bn): BatchNorm2d(18, eps=1e-05, momentum=0.1, affine=True, track_running_stats=True)
        (activation): ReLU(inplace=True)
        (conv): Conv2d(18, 72, kernel_size=(1, 1), stride=(1, 1), bias=False)
      )
      (shortcut): IdentityLayer()
      (final_bn): BatchNorm2d(72, eps=1e-05, momentum=0.1, affine=True, track_running_stats=True)
    )
    (2): ResidualBlock(
      (cell): TreeNode(
        (edges): ModuleList(
          (0): ConvLayer(
            (bn): BatchNorm2d(22, eps=1e-05, momentum=0.1, affine=True, track_running_stats=True)
            (activation): ReLU(inplace=True)
            (conv): Conv2d(22, 22, kernel_size=(3, 3), stride=(1, 1), padding=(1, 1), groups=2, bias=False)
          )
          (1): ConvLayer(
            (bn): BatchNorm2d(22, eps=1e-05, momentum=0.1, affine=True, track_running_stats=True)
            (activation): ReLU(inplace=True)
            (conv): Conv2d(22, 22, kernel_size=(3, 3), stride=(1, 1), padding=(1, 1), groups=2, bias=False)
          )
        )
        (child_nodes): ModuleList(
          (0): TreeNode(
            (edges): ModuleList(
              (0): ConvLayer(
                (bn): BatchNorm2d(22, eps=1e-05, momentum=0.1, affine=True, track_running_stats=True)
                (activation): ReLU(inplace=True)
                (conv): Conv2d(22, 22, kernel_size=(1, 1), stride=(1, 1), bias=False)
              )
              (1): PoolingLayer(
                (pool): MaxPool2d(kernel_size=3, stride=1, padding=1, dilation=1, ceil_mode=False)
              )
            )
            (child_nodes): ModuleList(
              (0): TreeNode(
                (edges): ModuleList(
                  (0): PoolingLayer(
                    (pool): AvgPool2d(kernel_size=3, stride=1, padding=1)
                  )
                  (1): DepthConvLayer(
                    (bn): BatchNorm2d(11, eps=1e-05, momentum=0.1, affine=True, track_running_stats=True)
                    (activation): ReLU(inplace=True)
                    (depth_conv): Conv2d(11, 11, kernel_size=(7, 7), stride=(1, 1), padding=(3, 3), groups=11, bias=False)
                    (point_conv): Conv2d(11, 11, kernel_size=(1, 1), stride=(1, 1), bias=False)
                  )
                )
                (child_nodes): ModuleList(
                  (0): None
                  (1): None
                )
              )
              (1): TreeNode(
                (edges): ModuleList(
                  (0): DepthConvLayer(
                    (bn): BatchNorm2d(22, eps=1e-05, momentum=0.1, affine=True, track_running_stats=True)
                    (activation): ReLU(inplace=True)
                    (depth_conv): Conv2d(22, 22, kernel_size=(3, 3), stride=(1, 1), padding=(1, 1), groups=22, bias=False)
                    (point_conv): Conv2d(22, 22, kernel_size=(1, 1), stride=(1, 1), bias=False)
                  )
                  (1): DepthConvLayer(
                    (bn): BatchNorm2d(22, eps=1e-05, momentum=0.1, affine=True, track_running_stats=True)
                    (activation): ReLU(inplace=True)
                    (depth_conv): Conv2d(22, 22, kernel_size=(5, 5), stride=(1, 1), padding=(2, 2), groups=22, bias=False)
                    (point_conv): Conv2d(22, 22, kernel_size=(1, 1), stride=(1, 1), bias=False)
                  )
                )
                (child_nodes): ModuleList(
                  (0): None
                  (1): None
                )
              )
            )
          )
          (1): TreeNode(
            (edges): ModuleList(
              (0): DepthConvLayer(
                (bn): BatchNorm2d(22, eps=1e-05, momentum=0.1, affine=True, track_running_stats=True)
                (activation): ReLU(inplace=True)
                (depth_conv): Conv2d(22, 22, kernel_size=(5, 5), stride=(1, 1), padding=(2, 2), groups=22, bias=False)
                (point_conv): Conv2d(22, 22, kernel_size=(1, 1), stride=(1, 1), bias=False)
              )
              (1): DepthConvLayer(
                (bn): BatchNorm2d(22, eps=1e-05, momentum=0.1, affine=True, track_running_stats=True)
                (activation): ReLU(inplace=True)
                (depth_conv): Conv2d(22, 22, kernel_size=(3, 3), stride=(1, 1), padding=(1, 1), groups=22, bias=False)
                (point_conv): Conv2d(22, 22, kernel_size=(1, 1), stride=(1, 1), bias=False)
              )
            )
            (child_nodes): ModuleList(
              (0): TreeNode(
                (edges): ModuleList(
                  (0): DepthConvLayer(
                    (bn): BatchNorm2d(22, eps=1e-05, momentum=0.1, affine=True, track_running_stats=True)
                    (activation): ReLU(inplace=True)
                    (depth_conv): Conv2d(22, 22, kernel_size=(5, 5), stride=(1, 1), padding=(2, 2), groups=22, bias=False)
                    (point_conv): Conv2d(22, 22, kernel_size=(1, 1), stride=(1, 1), bias=False)
                  )
                  (1): PoolingLayer(
                    (pool): AvgPool2d(kernel_size=3, stride=1, padding=1)
                  )
                  (2): PoolingLayer(
                    (pool): AvgPool2d(kernel_size=3, stride=1, padding=1)
                  )
                )
                (child_nodes): ModuleList(
                  (0): None
                  (1): None
                  (2): None
                )
              )
              (1): TreeNode(
                (edges): ModuleList(
                  (0): PoolingLayer(
                    (pool): AvgPool2d(kernel_size=3, stride=1, padding=1)
                  )
                  (1): DepthConvLayer(
                    (bn): BatchNorm2d(22, eps=1e-05, momentum=0.1, affine=True, track_running_stats=True)
                    (activation): ReLU(inplace=True)
                    (depth_conv): Conv2d(22, 22, kernel_size=(3, 3), stride=(1, 1), padding=(1, 1), groups=22, bias=False)
                    (point_conv): Conv2d(22, 22, kernel_size=(1, 1), stride=(1, 1), bias=False)
                  )
                )
                (child_nodes): ModuleList(
                  (0): None
                  (1): None
                )
              )
            )
          )
        )
        (branch_bns): ModuleList(
          (0): BatchNorm2d(22, eps=1e-05, momentum=0.1, affine=True, track_running_stats=True)
          (1): BatchNorm2d(22, eps=1e-05, momentum=0.1, affine=True, track_running_stats=True)
        )
      )
      (in_bottle): ConvLayer(
        (bn): BatchNorm2d(72, eps=1e-05, momentum=0.1, affine=True, track_running_stats=True)
        (conv): Conv2d(72, 22, kernel_size=(1, 1), stride=(1, 1), bias=False)
      )
      (out_bottle): ConvLayer(
        (bn): BatchNorm2d(22, eps=1e-05, momentum=0.1, affine=True, track_running_stats=True)
        (activation): ReLU(inplace=True)
        (conv): Conv2d(22, 88, kernel_size=(1, 1), stride=(1, 1), bias=False)
      )
      (shortcut): IdentityLayer()
      (final_bn): BatchNorm2d(88, eps=1e-05, momentum=0.1, affine=True, track_running_stats=True)
    )
    (3): ResidualBlock(
      (cell): TreeNode(
        (edges): ModuleList(
          (0): ConvLayer(
            (bn): BatchNorm2d(24, eps=1e-05, momentum=0.1, affine=True, track_running_stats=True)
            (activation): ReLU(inplace=True)
            (conv): Conv2d(24, 24, kernel_size=(3, 3), stride=(1, 1), padding=(1, 1), groups=2, bias=False)
          )
          (1): ConvLayer(
            (bn): BatchNorm2d(24, eps=1e-05, momentum=0.1, affine=True, track_running_stats=True)
            (activation): ReLU(inplace=True)
            (conv): Conv2d(24, 24, kernel_size=(3, 3), stride=(1, 1), padding=(1, 1), groups=2, bias=False)
          )
        )
        (child_nodes): ModuleList(
          (0): TreeNode(
            (edges): ModuleList(
              (0): ConvLayer(
                (bn): BatchNorm2d(24, eps=1e-05, momentum=0.1, affine=True, track_running_stats=True)
                (activation): ReLU(inplace=True)
                (conv): Conv2d(24, 24, kernel_size=(1, 1), stride=(1, 1), bias=False)
              )
              (1): PoolingLayer(
                (pool): MaxPool2d(kernel_size=3, stride=1, padding=1, dilation=1, ceil_mode=False)
              )
            )
            (child_nodes): ModuleList(
              (0): TreeNode(
                (edges): ModuleList(
                  (0): PoolingLayer(
                    (pool): AvgPool2d(kernel_size=3, stride=1, padding=1)
                  )
                  (1): DepthConvLayer(
                    (bn): BatchNorm2d(12, eps=1e-05, momentum=0.1, affine=True, track_running_stats=True)
                    (activation): ReLU(inplace=True)
                    (depth_conv): Conv2d(12, 12, kernel_size=(7, 7), stride=(1, 1), padding=(3, 3), groups=12, bias=False)
                    (point_conv): Conv2d(12, 12, kernel_size=(1, 1), stride=(1, 1), bias=False)
                  )
                )
                (child_nodes): ModuleList(
                  (0): None
                  (1): None
                )
              )
              (1): TreeNode(
                (edges): ModuleList(
                  (0): DepthConvLayer(
                    (bn): BatchNorm2d(24, eps=1e-05, momentum=0.1, affine=True, track_running_stats=True)
                    (activation): ReLU(inplace=True)
                    (depth_conv): Conv2d(24, 24, kernel_size=(3, 3), stride=(1, 1), padding=(1, 1), groups=24, bias=False)
                    (point_conv): Conv2d(24, 24, kernel_size=(1, 1), stride=(1, 1), bias=False)
                  )
                  (1): DepthConvLayer(
                    (bn): BatchNorm2d(24, eps=1e-05, momentum=0.1, affine=True, track_running_stats=True)
                    (activation): ReLU(inplace=True)
                    (depth_conv): Conv2d(24, 24, kernel_size=(5, 5), stride=(1, 1), padding=(2, 2), groups=24, bias=False)
                    (point_conv): Conv2d(24, 24, kernel_size=(1, 1), stride=(1, 1), bias=False)
                  )
                )
                (child_nodes): ModuleList(
                  (0): None
                  (1): None
                )
              )
            )
          )
          (1): TreeNode(
            (edges): ModuleList(
              (0): DepthConvLayer(
                (bn): BatchNorm2d(24, eps=1e-05, momentum=0.1, affine=True, track_running_stats=True)
                (activation): ReLU(inplace=True)
                (depth_conv): Conv2d(24, 24, kernel_size=(5, 5), stride=(1, 1), padding=(2, 2), groups=24, bias=False)
                (point_conv): Conv2d(24, 24, kernel_size=(1, 1), stride=(1, 1), bias=False)
              )
              (1): DepthConvLayer(
                (bn): BatchNorm2d(24, eps=1e-05, momentum=0.1, affine=True, track_running_stats=True)
                (activation): ReLU(inplace=True)
                (depth_conv): Conv2d(24, 24, kernel_size=(3, 3), stride=(1, 1), padding=(1, 1), groups=24, bias=False)
                (point_conv): Conv2d(24, 24, kernel_size=(1, 1), stride=(1, 1), bias=False)
              )
            )
            (child_nodes): ModuleList(
              (0): TreeNode(
                (edges): ModuleList(
                  (0): DepthConvLayer(
                    (bn): BatchNorm2d(24, eps=1e-05, momentum=0.1, affine=True, track_running_stats=True)
                    (activation): ReLU(inplace=True)
                    (depth_conv): Conv2d(24, 24, kernel_size=(5, 5), stride=(1, 1), padding=(2, 2), groups=24, bias=False)
                    (point_conv): Conv2d(24, 24, kernel_size=(1, 1), stride=(1, 1), bias=False)
                  )
                  (1): PoolingLayer(
                    (pool): AvgPool2d(kernel_size=3, stride=1, padding=1)
                  )
                  (2): PoolingLayer(
                    (pool): AvgPool2d(kernel_size=3, stride=1, padding=1)
                  )
                )
                (child_nodes): ModuleList(
                  (0): None
                  (1): None
                  (2): None
                )
              )
              (1): TreeNode(
                (edges): ModuleList(
                  (0): PoolingLayer(
                    (pool): AvgPool2d(kernel_size=3, stride=1, padding=1)
                  )
                  (1): DepthConvLayer(
                    (bn): BatchNorm2d(24, eps=1e-05, momentum=0.1, affine=True, track_running_stats=True)
                    (activation): ReLU(inplace=True)
                    (depth_conv): Conv2d(24, 24, kernel_size=(3, 3), stride=(1, 1), padding=(1, 1), groups=24, bias=False)
                    (point_conv): Conv2d(24, 24, kernel_size=(1, 1), stride=(1, 1), bias=False)
                  )
                )
                (child_nodes): ModuleList(
                  (0): None
                  (1): None
                )
              )
            )
          )
        )
        (branch_bns): ModuleList(
          (0): BatchNorm2d(24, eps=1e-05, momentum=0.1, affine=True, track_running_stats=True)
          (1): BatchNorm2d(24, eps=1e-05, momentum=0.1, affine=True, track_running_stats=True)
        )
      )
      (in_bottle): ConvLayer(
        (bn): BatchNorm2d(88, eps=1e-05, momentum=0.1, affine=True, track_running_stats=True)
        (conv): Conv2d(88, 24, kernel_size=(1, 1), stride=(1, 1), bias=False)
      )
      (out_bottle): ConvLayer(
        (bn): BatchNorm2d(24, eps=1e-05, momentum=0.1, affine=True, track_running_stats=True)
        (activation): ReLU(inplace=True)
        (conv): Conv2d(24, 96, kernel_size=(1, 1), stride=(1, 1), bias=False)
      )
      (shortcut): IdentityLayer()
      (final_bn): BatchNorm2d(96, eps=1e-05, momentum=0.1, affine=True, track_running_stats=True)
    )
    (4): ResidualBlock(
      (cell): TreeNode(
        (edges): ModuleList(
          (0): ConvLayer(
            (bn): BatchNorm2d(26, eps=1e-05, momentum=0.1, affine=True, track_running_stats=True)
            (activation): ReLU(inplace=True)
            (conv): Conv2d(26, 26, kernel_size=(3, 3), stride=(1, 1), padding=(1, 1), groups=2, bias=False)
          )
          (1): ConvLayer(
            (bn): BatchNorm2d(26, eps=1e-05, momentum=0.1, affine=True, track_running_stats=True)
            (activation): ReLU(inplace=True)
            (conv): Conv2d(26, 26, kernel_size=(3, 3), stride=(1, 1), padding=(1, 1), groups=2, bias=False)
          )
        )
        (child_nodes): ModuleList(
          (0): TreeNode(
            (edges): ModuleList(
              (0): ConvLayer(
                (bn): BatchNorm2d(26, eps=1e-05, momentum=0.1, affine=True, track_running_stats=True)
                (activation): ReLU(inplace=True)
                (conv): Conv2d(26, 26, kernel_size=(1, 1), stride=(1, 1), bias=False)
              )
              (1): PoolingLayer(
                (pool): MaxPool2d(kernel_size=3, stride=1, padding=1, dilation=1, ceil_mode=False)
              )
            )
            (child_nodes): ModuleList(
              (0): TreeNode(
                (edges): ModuleList(
                  (0): PoolingLayer(
                    (pool): AvgPool2d(kernel_size=3, stride=1, padding=1)
                  )
                  (1): DepthConvLayer(
                    (bn): BatchNorm2d(13, eps=1e-05, momentum=0.1, affine=True, track_running_stats=True)
                    (activation): ReLU(inplace=True)
                    (depth_conv): Conv2d(13, 13, kernel_size=(7, 7), stride=(1, 1), padding=(3, 3), groups=13, bias=False)
                    (point_conv): Conv2d(13, 13, kernel_size=(1, 1), stride=(1, 1), bias=False)
                  )
                )
                (child_nodes): ModuleList(
                  (0): None
                  (1): None
                )
              )
              (1): TreeNode(
                (edges): ModuleList(
                  (0): DepthConvLayer(
                    (bn): BatchNorm2d(26, eps=1e-05, momentum=0.1, affine=True, track_running_stats=True)
                    (activation): ReLU(inplace=True)
                    (depth_conv): Conv2d(26, 26, kernel_size=(3, 3), stride=(1, 1), padding=(1, 1), groups=26, bias=False)
                    (point_conv): Conv2d(26, 26, kernel_size=(1, 1), stride=(1, 1), bias=False)
                  )
                  (1): DepthConvLayer(
                    (bn): BatchNorm2d(26, eps=1e-05, momentum=0.1, affine=True, track_running_stats=True)
                    (activation): ReLU(inplace=True)
                    (depth_conv): Conv2d(26, 26, kernel_size=(5, 5), stride=(1, 1), padding=(2, 2), groups=26, bias=False)
                    (point_conv): Conv2d(26, 26, kernel_size=(1, 1), stride=(1, 1), bias=False)
                  )
                )
                (child_nodes): ModuleList(
                  (0): None
                  (1): None
                )
              )
            )
          )
          (1): TreeNode(
            (edges): ModuleList(
              (0): DepthConvLayer(
                (bn): BatchNorm2d(26, eps=1e-05, momentum=0.1, affine=True, track_running_stats=True)
                (activation): ReLU(inplace=True)
                (depth_conv): Conv2d(26, 26, kernel_size=(5, 5), stride=(1, 1), padding=(2, 2), groups=26, bias=False)
                (point_conv): Conv2d(26, 26, kernel_size=(1, 1), stride=(1, 1), bias=False)
              )
              (1): DepthConvLayer(
                (bn): BatchNorm2d(26, eps=1e-05, momentum=0.1, affine=True, track_running_stats=True)
                (activation): ReLU(inplace=True)
                (depth_conv): Conv2d(26, 26, kernel_size=(3, 3), stride=(1, 1), padding=(1, 1), groups=26, bias=False)
                (point_conv): Conv2d(26, 26, kernel_size=(1, 1), stride=(1, 1), bias=False)
              )
            )
            (child_nodes): ModuleList(
              (0): TreeNode(
                (edges): ModuleList(
                  (0): DepthConvLayer(
                    (bn): BatchNorm2d(26, eps=1e-05, momentum=0.1, affine=True, track_running_stats=True)
                    (activation): ReLU(inplace=True)
                    (depth_conv): Conv2d(26, 26, kernel_size=(5, 5), stride=(1, 1), padding=(2, 2), groups=26, bias=False)
                    (point_conv): Conv2d(26, 26, kernel_size=(1, 1), stride=(1, 1), bias=False)
                  )
                  (1): PoolingLayer(
                    (pool): AvgPool2d(kernel_size=3, stride=1, padding=1)
                  )
                  (2): PoolingLayer(
                    (pool): AvgPool2d(kernel_size=3, stride=1, padding=1)
                  )
                )
                (child_nodes): ModuleList(
                  (0): None
                  (1): None
                  (2): None
                )
              )
              (1): TreeNode(
                (edges): ModuleList(
                  (0): PoolingLayer(
                    (pool): AvgPool2d(kernel_size=3, stride=1, padding=1)
                  )
                  (1): DepthConvLayer(
                    (bn): BatchNorm2d(26, eps=1e-05, momentum=0.1, affine=True, track_running_stats=True)
                    (activation): ReLU(inplace=True)
                    (depth_conv): Conv2d(26, 26, kernel_size=(3, 3), stride=(1, 1), padding=(1, 1), groups=26, bias=False)
                    (point_conv): Conv2d(26, 26, kernel_size=(1, 1), stride=(1, 1), bias=False)
                  )
                )
                (child_nodes): ModuleList(
                  (0): None
                  (1): None
                )
              )
            )
          )
        )
        (branch_bns): ModuleList(
          (0): BatchNorm2d(26, eps=1e-05, momentum=0.1, affine=True, track_running_stats=True)
          (1): BatchNorm2d(26, eps=1e-05, momentum=0.1, affine=True, track_running_stats=True)
        )
      )
      (in_bottle): ConvLayer(
        (bn): BatchNorm2d(96, eps=1e-05, momentum=0.1, affine=True, track_running_stats=True)
        (conv): Conv2d(96, 26, kernel_size=(1, 1), stride=(1, 1), bias=False)
      )
      (out_bottle): ConvLayer(
        (bn): BatchNorm2d(26, eps=1e-05, momentum=0.1, affine=True, track_running_stats=True)
        (activation): ReLU(inplace=True)
        (conv): Conv2d(26, 104, kernel_size=(1, 1), stride=(1, 1), bias=False)
      )
      (shortcut): IdentityLayer()
      (final_bn): BatchNorm2d(104, eps=1e-05, momentum=0.1, affine=True, track_running_stats=True)
    )
    (5): ResidualBlock(
      (cell): TreeNode(
        (edges): ModuleList(
          (0): ConvLayer(
            (bn): BatchNorm2d(30, eps=1e-05, momentum=0.1, affine=True, track_running_stats=True)
            (activation): ReLU(inplace=True)
            (conv): Conv2d(30, 30, kernel_size=(3, 3), stride=(1, 1), padding=(1, 1), groups=2, bias=False)
          )
          (1): ConvLayer(
            (bn): BatchNorm2d(30, eps=1e-05, momentum=0.1, affine=True, track_running_stats=True)
            (activation): ReLU(inplace=True)
            (conv): Conv2d(30, 30, kernel_size=(3, 3), stride=(1, 1), padding=(1, 1), groups=2, bias=False)
          )
        )
        (child_nodes): ModuleList(
          (0): TreeNode(
            (edges): ModuleList(
              (0): ConvLayer(
                (bn): BatchNorm2d(30, eps=1e-05, momentum=0.1, affine=True, track_running_stats=True)
                (activation): ReLU(inplace=True)
                (conv): Conv2d(30, 30, kernel_size=(1, 1), stride=(1, 1), bias=False)
              )
              (1): PoolingLayer(
                (pool): MaxPool2d(kernel_size=3, stride=1, padding=1, dilation=1, ceil_mode=False)
              )
            )
            (child_nodes): ModuleList(
              (0): TreeNode(
                (edges): ModuleList(
                  (0): PoolingLayer(
                    (pool): AvgPool2d(kernel_size=3, stride=1, padding=1)
                  )
                  (1): DepthConvLayer(
                    (bn): BatchNorm2d(15, eps=1e-05, momentum=0.1, affine=True, track_running_stats=True)
                    (activation): ReLU(inplace=True)
                    (depth_conv): Conv2d(15, 15, kernel_size=(7, 7), stride=(1, 1), padding=(3, 3), groups=15, bias=False)
                    (point_conv): Conv2d(15, 15, kernel_size=(1, 1), stride=(1, 1), bias=False)
                  )
                )
                (child_nodes): ModuleList(
                  (0): None
                  (1): None
                )
              )
              (1): TreeNode(
                (edges): ModuleList(
                  (0): DepthConvLayer(
                    (bn): BatchNorm2d(30, eps=1e-05, momentum=0.1, affine=True, track_running_stats=True)
                    (activation): ReLU(inplace=True)
                    (depth_conv): Conv2d(30, 30, kernel_size=(3, 3), stride=(1, 1), padding=(1, 1), groups=30, bias=False)
                    (point_conv): Conv2d(30, 30, kernel_size=(1, 1), stride=(1, 1), bias=False)
                  )
                  (1): DepthConvLayer(
                    (bn): BatchNorm2d(30, eps=1e-05, momentum=0.1, affine=True, track_running_stats=True)
                    (activation): ReLU(inplace=True)
                    (depth_conv): Conv2d(30, 30, kernel_size=(5, 5), stride=(1, 1), padding=(2, 2), groups=30, bias=False)
                    (point_conv): Conv2d(30, 30, kernel_size=(1, 1), stride=(1, 1), bias=False)
                  )
                )
                (child_nodes): ModuleList(
                  (0): None
                  (1): None
                )
              )
            )
          )
          (1): TreeNode(
            (edges): ModuleList(
              (0): DepthConvLayer(
                (bn): BatchNorm2d(30, eps=1e-05, momentum=0.1, affine=True, track_running_stats=True)
                (activation): ReLU(inplace=True)
                (depth_conv): Conv2d(30, 30, kernel_size=(5, 5), stride=(1, 1), padding=(2, 2), groups=30, bias=False)
                (point_conv): Conv2d(30, 30, kernel_size=(1, 1), stride=(1, 1), bias=False)
              )
              (1): DepthConvLayer(
                (bn): BatchNorm2d(30, eps=1e-05, momentum=0.1, affine=True, track_running_stats=True)
                (activation): ReLU(inplace=True)
                (depth_conv): Conv2d(30, 30, kernel_size=(3, 3), stride=(1, 1), padding=(1, 1), groups=30, bias=False)
                (point_conv): Conv2d(30, 30, kernel_size=(1, 1), stride=(1, 1), bias=False)
              )
            )
            (child_nodes): ModuleList(
              (0): TreeNode(
                (edges): ModuleList(
                  (0): DepthConvLayer(
                    (bn): BatchNorm2d(30, eps=1e-05, momentum=0.1, affine=True, track_running_stats=True)
                    (activation): ReLU(inplace=True)
                    (depth_conv): Conv2d(30, 30, kernel_size=(5, 5), stride=(1, 1), padding=(2, 2), groups=30, bias=False)
                    (point_conv): Conv2d(30, 30, kernel_size=(1, 1), stride=(1, 1), bias=False)
                  )
                  (1): PoolingLayer(
                    (pool): AvgPool2d(kernel_size=3, stride=1, padding=1)
                  )
                  (2): PoolingLayer(
                    (pool): AvgPool2d(kernel_size=3, stride=1, padding=1)
                  )
                )
                (child_nodes): ModuleList(
                  (0): None
                  (1): None
                  (2): None
                )
              )
              (1): TreeNode(
                (edges): ModuleList(
                  (0): PoolingLayer(
                    (pool): AvgPool2d(kernel_size=3, stride=1, padding=1)
                  )
                  (1): DepthConvLayer(
                    (bn): BatchNorm2d(30, eps=1e-05, momentum=0.1, affine=True, track_running_stats=True)
                    (activation): ReLU(inplace=True)
                    (depth_conv): Conv2d(30, 30, kernel_size=(3, 3), stride=(1, 1), padding=(1, 1), groups=30, bias=False)
                    (point_conv): Conv2d(30, 30, kernel_size=(1, 1), stride=(1, 1), bias=False)
                  )
                )
                (child_nodes): ModuleList(
                  (0): None
                  (1): None
                )
              )
            )
          )
        )
        (branch_bns): ModuleList(
          (0): BatchNorm2d(30, eps=1e-05, momentum=0.1, affine=True, track_running_stats=True)
          (1): BatchNorm2d(30, eps=1e-05, momentum=0.1, affine=True, track_running_stats=True)
        )
      )
      (in_bottle): ConvLayer(
        (bn): BatchNorm2d(104, eps=1e-05, momentum=0.1, affine=True, track_running_stats=True)
        (conv): Conv2d(104, 30, kernel_size=(1, 1), stride=(1, 1), bias=False)
      )
      (out_bottle): ConvLayer(
        (bn): BatchNorm2d(30, eps=1e-05, momentum=0.1, affine=True, track_running_stats=True)
        (activation): ReLU(inplace=True)
        (conv): Conv2d(30, 120, kernel_size=(1, 1), stride=(1, 1), bias=False)
      )
      (shortcut): IdentityLayer()
      (final_bn): BatchNorm2d(120, eps=1e-05, momentum=0.1, affine=True, track_running_stats=True)
    )
    (6): ResidualBlock(
      (cell): TreeNode(
        (edges): ModuleList(
          (0): ConvLayer(
            (bn): BatchNorm2d(32, eps=1e-05, momentum=0.1, affine=True, track_running_stats=True)
            (activation): ReLU(inplace=True)
            (conv): Conv2d(32, 32, kernel_size=(3, 3), stride=(1, 1), padding=(1, 1), groups=2, bias=False)
          )
          (1): ConvLayer(
            (bn): BatchNorm2d(32, eps=1e-05, momentum=0.1, affine=True, track_running_stats=True)
            (activation): ReLU(inplace=True)
            (conv): Conv2d(32, 32, kernel_size=(3, 3), stride=(1, 1), padding=(1, 1), groups=2, bias=False)
          )
        )
        (child_nodes): ModuleList(
          (0): TreeNode(
            (edges): ModuleList(
              (0): ConvLayer(
                (bn): BatchNorm2d(32, eps=1e-05, momentum=0.1, affine=True, track_running_stats=True)
                (activation): ReLU(inplace=True)
                (conv): Conv2d(32, 32, kernel_size=(1, 1), stride=(1, 1), bias=False)
              )
              (1): PoolingLayer(
                (pool): MaxPool2d(kernel_size=3, stride=1, padding=1, dilation=1, ceil_mode=False)
              )
            )
            (child_nodes): ModuleList(
              (0): TreeNode(
                (edges): ModuleList(
                  (0): PoolingLayer(
                    (pool): AvgPool2d(kernel_size=3, stride=1, padding=1)
                  )
                  (1): DepthConvLayer(
                    (bn): BatchNorm2d(16, eps=1e-05, momentum=0.1, affine=True, track_running_stats=True)
                    (activation): ReLU(inplace=True)
                    (depth_conv): Conv2d(16, 16, kernel_size=(7, 7), stride=(1, 1), padding=(3, 3), groups=16, bias=False)
                    (point_conv): Conv2d(16, 16, kernel_size=(1, 1), stride=(1, 1), bias=False)
                  )
                )
                (child_nodes): ModuleList(
                  (0): None
                  (1): None
                )
              )
              (1): TreeNode(
                (edges): ModuleList(
                  (0): DepthConvLayer(
                    (bn): BatchNorm2d(32, eps=1e-05, momentum=0.1, affine=True, track_running_stats=True)
                    (activation): ReLU(inplace=True)
                    (depth_conv): Conv2d(32, 32, kernel_size=(3, 3), stride=(1, 1), padding=(1, 1), groups=32, bias=False)
                    (point_conv): Conv2d(32, 32, kernel_size=(1, 1), stride=(1, 1), bias=False)
                  )
                  (1): DepthConvLayer(
                    (bn): BatchNorm2d(32, eps=1e-05, momentum=0.1, affine=True, track_running_stats=True)
                    (activation): ReLU(inplace=True)
                    (depth_conv): Conv2d(32, 32, kernel_size=(5, 5), stride=(1, 1), padding=(2, 2), groups=32, bias=False)
                    (point_conv): Conv2d(32, 32, kernel_size=(1, 1), stride=(1, 1), bias=False)
                  )
                )
                (child_nodes): ModuleList(
                  (0): None
                  (1): None
                )
              )
            )
          )
          (1): TreeNode(
            (edges): ModuleList(
              (0): DepthConvLayer(
                (bn): BatchNorm2d(32, eps=1e-05, momentum=0.1, affine=True, track_running_stats=True)
                (activation): ReLU(inplace=True)
                (depth_conv): Conv2d(32, 32, kernel_size=(5, 5), stride=(1, 1), padding=(2, 2), groups=32, bias=False)
                (point_conv): Conv2d(32, 32, kernel_size=(1, 1), stride=(1, 1), bias=False)
              )
              (1): DepthConvLayer(
                (bn): BatchNorm2d(32, eps=1e-05, momentum=0.1, affine=True, track_running_stats=True)
                (activation): ReLU(inplace=True)
                (depth_conv): Conv2d(32, 32, kernel_size=(3, 3), stride=(1, 1), padding=(1, 1), groups=32, bias=False)
                (point_conv): Conv2d(32, 32, kernel_size=(1, 1), stride=(1, 1), bias=False)
              )
            )
            (child_nodes): ModuleList(
              (0): TreeNode(
                (edges): ModuleList(
                  (0): DepthConvLayer(
                    (bn): BatchNorm2d(32, eps=1e-05, momentum=0.1, affine=True, track_running_stats=True)
                    (activation): ReLU(inplace=True)
                    (depth_conv): Conv2d(32, 32, kernel_size=(5, 5), stride=(1, 1), padding=(2, 2), groups=32, bias=False)
                    (point_conv): Conv2d(32, 32, kernel_size=(1, 1), stride=(1, 1), bias=False)
                  )
                  (1): PoolingLayer(
                    (pool): AvgPool2d(kernel_size=3, stride=1, padding=1)
                  )
                  (2): PoolingLayer(
                    (pool): AvgPool2d(kernel_size=3, stride=1, padding=1)
                  )
                )
                (child_nodes): ModuleList(
                  (0): None
                  (1): None
                  (2): None
                )
              )
              (1): TreeNode(
                (edges): ModuleList(
                  (0): PoolingLayer(
                    (pool): AvgPool2d(kernel_size=3, stride=1, padding=1)
                  )
                  (1): DepthConvLayer(
                    (bn): BatchNorm2d(32, eps=1e-05, momentum=0.1, affine=True, track_running_stats=True)
                    (activation): ReLU(inplace=True)
                    (depth_conv): Conv2d(32, 32, kernel_size=(3, 3), stride=(1, 1), padding=(1, 1), groups=32, bias=False)
                    (point_conv): Conv2d(32, 32, kernel_size=(1, 1), stride=(1, 1), bias=False)
                  )
                )
                (child_nodes): ModuleList(
                  (0): None
                  (1): None
                )
              )
            )
          )
        )
        (branch_bns): ModuleList(
          (0): BatchNorm2d(32, eps=1e-05, momentum=0.1, affine=True, track_running_stats=True)
          (1): BatchNorm2d(32, eps=1e-05, momentum=0.1, affine=True, track_running_stats=True)
        )
      )
      (in_bottle): ConvLayer(
        (bn): BatchNorm2d(120, eps=1e-05, momentum=0.1, affine=True, track_running_stats=True)
        (conv): Conv2d(120, 32, kernel_size=(1, 1), stride=(1, 1), bias=False)
      )
      (out_bottle): ConvLayer(
        (bn): BatchNorm2d(32, eps=1e-05, momentum=0.1, affine=True, track_running_stats=True)
        (activation): ReLU(inplace=True)
        (conv): Conv2d(32, 128, kernel_size=(1, 1), stride=(1, 1), bias=False)
      )
      (shortcut): IdentityLayer()
      (final_bn): BatchNorm2d(128, eps=1e-05, momentum=0.1, affine=True, track_running_stats=True)
    )
    (7): ResidualBlock(
      (cell): TreeNode(
        (edges): ModuleList(
          (0): ConvLayer(
            (bn): BatchNorm2d(34, eps=1e-05, momentum=0.1, affine=True, track_running_stats=True)
            (activation): ReLU(inplace=True)
            (conv): Conv2d(34, 34, kernel_size=(3, 3), stride=(1, 1), padding=(1, 1), groups=2, bias=False)
          )
          (1): ConvLayer(
            (bn): BatchNorm2d(34, eps=1e-05, momentum=0.1, affine=True, track_running_stats=True)
            (activation): ReLU(inplace=True)
            (conv): Conv2d(34, 34, kernel_size=(3, 3), stride=(1, 1), padding=(1, 1), groups=2, bias=False)
          )
        )
        (child_nodes): ModuleList(
          (0): TreeNode(
            (edges): ModuleList(
              (0): ConvLayer(
                (bn): BatchNorm2d(34, eps=1e-05, momentum=0.1, affine=True, track_running_stats=True)
                (activation): ReLU(inplace=True)
                (conv): Conv2d(34, 34, kernel_size=(1, 1), stride=(1, 1), bias=False)
              )
              (1): PoolingLayer(
                (pool): MaxPool2d(kernel_size=3, stride=1, padding=1, dilation=1, ceil_mode=False)
              )
            )
            (child_nodes): ModuleList(
              (0): TreeNode(
                (edges): ModuleList(
                  (0): PoolingLayer(
                    (pool): AvgPool2d(kernel_size=3, stride=1, padding=1)
                  )
                  (1): DepthConvLayer(
                    (bn): BatchNorm2d(17, eps=1e-05, momentum=0.1, affine=True, track_running_stats=True)
                    (activation): ReLU(inplace=True)
                    (depth_conv): Conv2d(17, 17, kernel_size=(7, 7), stride=(1, 1), padding=(3, 3), groups=17, bias=False)
                    (point_conv): Conv2d(17, 17, kernel_size=(1, 1), stride=(1, 1), bias=False)
                  )
                )
                (child_nodes): ModuleList(
                  (0): None
                  (1): None
                )
              )
              (1): TreeNode(
                (edges): ModuleList(
                  (0): DepthConvLayer(
                    (bn): BatchNorm2d(34, eps=1e-05, momentum=0.1, affine=True, track_running_stats=True)
                    (activation): ReLU(inplace=True)
                    (depth_conv): Conv2d(34, 34, kernel_size=(3, 3), stride=(1, 1), padding=(1, 1), groups=34, bias=False)
                    (point_conv): Conv2d(34, 34, kernel_size=(1, 1), stride=(1, 1), bias=False)
                  )
                  (1): DepthConvLayer(
                    (bn): BatchNorm2d(34, eps=1e-05, momentum=0.1, affine=True, track_running_stats=True)
                    (activation): ReLU(inplace=True)
                    (depth_conv): Conv2d(34, 34, kernel_size=(5, 5), stride=(1, 1), padding=(2, 2), groups=34, bias=False)
                    (point_conv): Conv2d(34, 34, kernel_size=(1, 1), stride=(1, 1), bias=False)
                  )
                )
                (child_nodes): ModuleList(
                  (0): None
                  (1): None
                )
              )
            )
          )
          (1): TreeNode(
            (edges): ModuleList(
              (0): DepthConvLayer(
                (bn): BatchNorm2d(34, eps=1e-05, momentum=0.1, affine=True, track_running_stats=True)
                (activation): ReLU(inplace=True)
                (depth_conv): Conv2d(34, 34, kernel_size=(5, 5), stride=(1, 1), padding=(2, 2), groups=34, bias=False)
                (point_conv): Conv2d(34, 34, kernel_size=(1, 1), stride=(1, 1), bias=False)
              )
              (1): DepthConvLayer(
                (bn): BatchNorm2d(34, eps=1e-05, momentum=0.1, affine=True, track_running_stats=True)
                (activation): ReLU(inplace=True)
                (depth_conv): Conv2d(34, 34, kernel_size=(3, 3), stride=(1, 1), padding=(1, 1), groups=34, bias=False)
                (point_conv): Conv2d(34, 34, kernel_size=(1, 1), stride=(1, 1), bias=False)
              )
            )
            (child_nodes): ModuleList(
              (0): TreeNode(
                (edges): ModuleList(
                  (0): DepthConvLayer(
                    (bn): BatchNorm2d(34, eps=1e-05, momentum=0.1, affine=True, track_running_stats=True)
                    (activation): ReLU(inplace=True)
                    (depth_conv): Conv2d(34, 34, kernel_size=(5, 5), stride=(1, 1), padding=(2, 2), groups=34, bias=False)
                    (point_conv): Conv2d(34, 34, kernel_size=(1, 1), stride=(1, 1), bias=False)
                  )
                  (1): PoolingLayer(
                    (pool): AvgPool2d(kernel_size=3, stride=1, padding=1)
                  )
                  (2): PoolingLayer(
                    (pool): AvgPool2d(kernel_size=3, stride=1, padding=1)
                  )
                )
                (child_nodes): ModuleList(
                  (0): None
                  (1): None
                  (2): None
                )
              )
              (1): TreeNode(
                (edges): ModuleList(
                  (0): PoolingLayer(
                    (pool): AvgPool2d(kernel_size=3, stride=1, padding=1)
                  )
                  (1): DepthConvLayer(
                    (bn): BatchNorm2d(34, eps=1e-05, momentum=0.1, affine=True, track_running_stats=True)
                    (activation): ReLU(inplace=True)
                    (depth_conv): Conv2d(34, 34, kernel_size=(3, 3), stride=(1, 1), padding=(1, 1), groups=34, bias=False)
                    (point_conv): Conv2d(34, 34, kernel_size=(1, 1), stride=(1, 1), bias=False)
                  )
                )
                (child_nodes): ModuleList(
                  (0): None
                  (1): None
                )
              )
            )
          )
        )
        (branch_bns): ModuleList(
          (0): BatchNorm2d(34, eps=1e-05, momentum=0.1, affine=True, track_running_stats=True)
          (1): BatchNorm2d(34, eps=1e-05, momentum=0.1, affine=True, track_running_stats=True)
        )
      )
      (in_bottle): ConvLayer(
        (bn): BatchNorm2d(128, eps=1e-05, momentum=0.1, affine=True, track_running_stats=True)
        (conv): Conv2d(128, 34, kernel_size=(1, 1), stride=(1, 1), bias=False)
      )
      (out_bottle): ConvLayer(
        (bn): BatchNorm2d(34, eps=1e-05, momentum=0.1, affine=True, track_running_stats=True)
        (activation): ReLU(inplace=True)
        (conv): Conv2d(34, 136, kernel_size=(1, 1), stride=(1, 1), bias=False)
      )
      (shortcut): IdentityLayer()
      (final_bn): BatchNorm2d(136, eps=1e-05, momentum=0.1, affine=True, track_running_stats=True)
    )
    (8): ResidualBlock(
      (cell): TreeNode(
        (edges): ModuleList(
          (0): ConvLayer(
            (bn): BatchNorm2d(38, eps=1e-05, momentum=0.1, affine=True, track_running_stats=True)
            (activation): ReLU(inplace=True)
            (conv): Conv2d(38, 38, kernel_size=(3, 3), stride=(1, 1), padding=(1, 1), groups=2, bias=False)
          )
          (1): ConvLayer(
            (bn): BatchNorm2d(38, eps=1e-05, momentum=0.1, affine=True, track_running_stats=True)
            (activation): ReLU(inplace=True)
            (conv): Conv2d(38, 38, kernel_size=(3, 3), stride=(1, 1), padding=(1, 1), groups=2, bias=False)
          )
        )
        (child_nodes): ModuleList(
          (0): TreeNode(
            (edges): ModuleList(
              (0): ConvLayer(
                (bn): BatchNorm2d(38, eps=1e-05, momentum=0.1, affine=True, track_running_stats=True)
                (activation): ReLU(inplace=True)
                (conv): Conv2d(38, 38, kernel_size=(1, 1), stride=(1, 1), bias=False)
              )
              (1): PoolingLayer(
                (pool): MaxPool2d(kernel_size=3, stride=1, padding=1, dilation=1, ceil_mode=False)
              )
            )
            (child_nodes): ModuleList(
              (0): TreeNode(
                (edges): ModuleList(
                  (0): PoolingLayer(
                    (pool): AvgPool2d(kernel_size=3, stride=1, padding=1)
                  )
                  (1): DepthConvLayer(
                    (bn): BatchNorm2d(19, eps=1e-05, momentum=0.1, affine=True, track_running_stats=True)
                    (activation): ReLU(inplace=True)
                    (depth_conv): Conv2d(19, 19, kernel_size=(7, 7), stride=(1, 1), padding=(3, 3), groups=19, bias=False)
                    (point_conv): Conv2d(19, 19, kernel_size=(1, 1), stride=(1, 1), bias=False)
                  )
                )
                (child_nodes): ModuleList(
                  (0): None
                  (1): None
                )
              )
              (1): TreeNode(
                (edges): ModuleList(
                  (0): DepthConvLayer(
                    (bn): BatchNorm2d(38, eps=1e-05, momentum=0.1, affine=True, track_running_stats=True)
                    (activation): ReLU(inplace=True)
                    (depth_conv): Conv2d(38, 38, kernel_size=(3, 3), stride=(1, 1), padding=(1, 1), groups=38, bias=False)
                    (point_conv): Conv2d(38, 38, kernel_size=(1, 1), stride=(1, 1), bias=False)
                  )
                  (1): DepthConvLayer(
                    (bn): BatchNorm2d(38, eps=1e-05, momentum=0.1, affine=True, track_running_stats=True)
                    (activation): ReLU(inplace=True)
                    (depth_conv): Conv2d(38, 38, kernel_size=(5, 5), stride=(1, 1), padding=(2, 2), groups=38, bias=False)
                    (point_conv): Conv2d(38, 38, kernel_size=(1, 1), stride=(1, 1), bias=False)
                  )
                )
                (child_nodes): ModuleList(
                  (0): None
                  (1): None
                )
              )
            )
          )
          (1): TreeNode(
            (edges): ModuleList(
              (0): DepthConvLayer(
                (bn): BatchNorm2d(38, eps=1e-05, momentum=0.1, affine=True, track_running_stats=True)
                (activation): ReLU(inplace=True)
                (depth_conv): Conv2d(38, 38, kernel_size=(5, 5), stride=(1, 1), padding=(2, 2), groups=38, bias=False)
                (point_conv): Conv2d(38, 38, kernel_size=(1, 1), stride=(1, 1), bias=False)
              )
              (1): DepthConvLayer(
                (bn): BatchNorm2d(38, eps=1e-05, momentum=0.1, affine=True, track_running_stats=True)
                (activation): ReLU(inplace=True)
                (depth_conv): Conv2d(38, 38, kernel_size=(3, 3), stride=(1, 1), padding=(1, 1), groups=38, bias=False)
                (point_conv): Conv2d(38, 38, kernel_size=(1, 1), stride=(1, 1), bias=False)
              )
            )
            (child_nodes): ModuleList(
              (0): TreeNode(
                (edges): ModuleList(
                  (0): DepthConvLayer(
                    (bn): BatchNorm2d(38, eps=1e-05, momentum=0.1, affine=True, track_running_stats=True)
                    (activation): ReLU(inplace=True)
                    (depth_conv): Conv2d(38, 38, kernel_size=(5, 5), stride=(1, 1), padding=(2, 2), groups=38, bias=False)
                    (point_conv): Conv2d(38, 38, kernel_size=(1, 1), stride=(1, 1), bias=False)
                  )
                  (1): PoolingLayer(
                    (pool): AvgPool2d(kernel_size=3, stride=1, padding=1)
                  )
                  (2): PoolingLayer(
                    (pool): AvgPool2d(kernel_size=3, stride=1, padding=1)
                  )
                )
                (child_nodes): ModuleList(
                  (0): None
                  (1): None
                  (2): None
                )
              )
              (1): TreeNode(
                (edges): ModuleList(
                  (0): PoolingLayer(
                    (pool): AvgPool2d(kernel_size=3, stride=1, padding=1)
                  )
                  (1): DepthConvLayer(
                    (bn): BatchNorm2d(38, eps=1e-05, momentum=0.1, affine=True, track_running_stats=True)
                    (activation): ReLU(inplace=True)
                    (depth_conv): Conv2d(38, 38, kernel_size=(3, 3), stride=(1, 1), padding=(1, 1), groups=38, bias=False)
                    (point_conv): Conv2d(38, 38, kernel_size=(1, 1), stride=(1, 1), bias=False)
                  )
                )
                (child_nodes): ModuleList(
                  (0): None
                  (1): None
                )
              )
            )
          )
        )
        (branch_bns): ModuleList(
          (0): BatchNorm2d(38, eps=1e-05, momentum=0.1, affine=True, track_running_stats=True)
          (1): BatchNorm2d(38, eps=1e-05, momentum=0.1, affine=True, track_running_stats=True)
        )
      )
      (in_bottle): ConvLayer(
        (bn): BatchNorm2d(136, eps=1e-05, momentum=0.1, affine=True, track_running_stats=True)
        (conv): Conv2d(136, 38, kernel_size=(1, 1), stride=(1, 1), bias=False)
      )
      (out_bottle): ConvLayer(
        (bn): BatchNorm2d(38, eps=1e-05, momentum=0.1, affine=True, track_running_stats=True)
        (activation): ReLU(inplace=True)
        (conv): Conv2d(38, 152, kernel_size=(1, 1), stride=(1, 1), bias=False)
      )
      (shortcut): IdentityLayer()
      (final_bn): BatchNorm2d(152, eps=1e-05, momentum=0.1, affine=True, track_running_stats=True)
    )
    (9): ResidualBlock(
      (cell): TreeNode(
        (edges): ModuleList(
          (0): ConvLayer(
            (bn): BatchNorm2d(40, eps=1e-05, momentum=0.1, affine=True, track_running_stats=True)
            (activation): ReLU(inplace=True)
            (conv): Conv2d(40, 40, kernel_size=(3, 3), stride=(1, 1), padding=(1, 1), groups=2, bias=False)
          )
          (1): ConvLayer(
            (bn): BatchNorm2d(40, eps=1e-05, momentum=0.1, affine=True, track_running_stats=True)
            (activation): ReLU(inplace=True)
            (conv): Conv2d(40, 40, kernel_size=(3, 3), stride=(1, 1), padding=(1, 1), groups=2, bias=False)
          )
        )
        (child_nodes): ModuleList(
          (0): TreeNode(
            (edges): ModuleList(
              (0): ConvLayer(
                (bn): BatchNorm2d(40, eps=1e-05, momentum=0.1, affine=True, track_running_stats=True)
                (activation): ReLU(inplace=True)
                (conv): Conv2d(40, 40, kernel_size=(1, 1), stride=(1, 1), bias=False)
              )
              (1): PoolingLayer(
                (pool): MaxPool2d(kernel_size=3, stride=1, padding=1, dilation=1, ceil_mode=False)
              )
            )
            (child_nodes): ModuleList(
              (0): TreeNode(
                (edges): ModuleList(
                  (0): PoolingLayer(
                    (pool): AvgPool2d(kernel_size=3, stride=1, padding=1)
                  )
                  (1): DepthConvLayer(
                    (bn): BatchNorm2d(20, eps=1e-05, momentum=0.1, affine=True, track_running_stats=True)
                    (activation): ReLU(inplace=True)
                    (depth_conv): Conv2d(20, 20, kernel_size=(7, 7), stride=(1, 1), padding=(3, 3), groups=20, bias=False)
                    (point_conv): Conv2d(20, 20, kernel_size=(1, 1), stride=(1, 1), bias=False)
                  )
                )
                (child_nodes): ModuleList(
                  (0): None
                  (1): None
                )
              )
              (1): TreeNode(
                (edges): ModuleList(
                  (0): DepthConvLayer(
                    (bn): BatchNorm2d(40, eps=1e-05, momentum=0.1, affine=True, track_running_stats=True)
                    (activation): ReLU(inplace=True)
                    (depth_conv): Conv2d(40, 40, kernel_size=(3, 3), stride=(1, 1), padding=(1, 1), groups=40, bias=False)
                    (point_conv): Conv2d(40, 40, kernel_size=(1, 1), stride=(1, 1), bias=False)
                  )
                  (1): DepthConvLayer(
                    (bn): BatchNorm2d(40, eps=1e-05, momentum=0.1, affine=True, track_running_stats=True)
                    (activation): ReLU(inplace=True)
                    (depth_conv): Conv2d(40, 40, kernel_size=(5, 5), stride=(1, 1), padding=(2, 2), groups=40, bias=False)
                    (point_conv): Conv2d(40, 40, kernel_size=(1, 1), stride=(1, 1), bias=False)
                  )
                )
                (child_nodes): ModuleList(
                  (0): None
                  (1): None
                )
              )
            )
          )
          (1): TreeNode(
            (edges): ModuleList(
              (0): DepthConvLayer(
                (bn): BatchNorm2d(40, eps=1e-05, momentum=0.1, affine=True, track_running_stats=True)
                (activation): ReLU(inplace=True)
                (depth_conv): Conv2d(40, 40, kernel_size=(5, 5), stride=(1, 1), padding=(2, 2), groups=40, bias=False)
                (point_conv): Conv2d(40, 40, kernel_size=(1, 1), stride=(1, 1), bias=False)
              )
              (1): DepthConvLayer(
                (bn): BatchNorm2d(40, eps=1e-05, momentum=0.1, affine=True, track_running_stats=True)
                (activation): ReLU(inplace=True)
                (depth_conv): Conv2d(40, 40, kernel_size=(3, 3), stride=(1, 1), padding=(1, 1), groups=40, bias=False)
                (point_conv): Conv2d(40, 40, kernel_size=(1, 1), stride=(1, 1), bias=False)
              )
            )
            (child_nodes): ModuleList(
              (0): TreeNode(
                (edges): ModuleList(
                  (0): DepthConvLayer(
                    (bn): BatchNorm2d(40, eps=1e-05, momentum=0.1, affine=True, track_running_stats=True)
                    (activation): ReLU(inplace=True)
                    (depth_conv): Conv2d(40, 40, kernel_size=(5, 5), stride=(1, 1), padding=(2, 2), groups=40, bias=False)
                    (point_conv): Conv2d(40, 40, kernel_size=(1, 1), stride=(1, 1), bias=False)
                  )
                  (1): PoolingLayer(
                    (pool): AvgPool2d(kernel_size=3, stride=1, padding=1)
                  )
                  (2): PoolingLayer(
                    (pool): AvgPool2d(kernel_size=3, stride=1, padding=1)
                  )
                )
                (child_nodes): ModuleList(
                  (0): None
                  (1): None
                  (2): None
                )
              )
              (1): TreeNode(
                (edges): ModuleList(
                  (0): PoolingLayer(
                    (pool): AvgPool2d(kernel_size=3, stride=1, padding=1)
                  )
                  (1): DepthConvLayer(
                    (bn): BatchNorm2d(40, eps=1e-05, momentum=0.1, affine=True, track_running_stats=True)
                    (activation): ReLU(inplace=True)
                    (depth_conv): Conv2d(40, 40, kernel_size=(3, 3), stride=(1, 1), padding=(1, 1), groups=40, bias=False)
                    (point_conv): Conv2d(40, 40, kernel_size=(1, 1), stride=(1, 1), bias=False)
                  )
                )
                (child_nodes): ModuleList(
                  (0): None
                  (1): None
                )
              )
            )
          )
        )
        (branch_bns): ModuleList(
          (0): BatchNorm2d(40, eps=1e-05, momentum=0.1, affine=True, track_running_stats=True)
          (1): BatchNorm2d(40, eps=1e-05, momentum=0.1, affine=True, track_running_stats=True)
        )
      )
      (in_bottle): ConvLayer(
        (bn): BatchNorm2d(152, eps=1e-05, momentum=0.1, affine=True, track_running_stats=True)
        (conv): Conv2d(152, 40, kernel_size=(1, 1), stride=(1, 1), bias=False)
      )
      (out_bottle): ConvLayer(
        (bn): BatchNorm2d(40, eps=1e-05, momentum=0.1, affine=True, track_running_stats=True)
        (activation): ReLU(inplace=True)
        (conv): Conv2d(40, 160, kernel_size=(1, 1), stride=(1, 1), bias=False)
      )
      (shortcut): IdentityLayer()
      (final_bn): BatchNorm2d(160, eps=1e-05, momentum=0.1, affine=True, track_running_stats=True)
    )
    (10): ResidualBlock(
      (cell): TreeNode(
        (edges): ModuleList(
          (0): ConvLayer(
            (bn): BatchNorm2d(44, eps=1e-05, momentum=0.1, affine=True, track_running_stats=True)
            (activation): ReLU(inplace=True)
            (conv): Conv2d(44, 44, kernel_size=(3, 3), stride=(1, 1), padding=(1, 1), groups=2, bias=False)
          )
          (1): ConvLayer(
            (bn): BatchNorm2d(44, eps=1e-05, momentum=0.1, affine=True, track_running_stats=True)
            (activation): ReLU(inplace=True)
            (conv): Conv2d(44, 44, kernel_size=(3, 3), stride=(1, 1), padding=(1, 1), groups=2, bias=False)
          )
        )
        (child_nodes): ModuleList(
          (0): TreeNode(
            (edges): ModuleList(
              (0): ConvLayer(
                (bn): BatchNorm2d(44, eps=1e-05, momentum=0.1, affine=True, track_running_stats=True)
                (activation): ReLU(inplace=True)
                (conv): Conv2d(44, 44, kernel_size=(1, 1), stride=(1, 1), bias=False)
              )
              (1): PoolingLayer(
                (pool): MaxPool2d(kernel_size=3, stride=1, padding=1, dilation=1, ceil_mode=False)
              )
            )
            (child_nodes): ModuleList(
              (0): TreeNode(
                (edges): ModuleList(
                  (0): PoolingLayer(
                    (pool): AvgPool2d(kernel_size=3, stride=1, padding=1)
                  )
                  (1): DepthConvLayer(
                    (bn): BatchNorm2d(22, eps=1e-05, momentum=0.1, affine=True, track_running_stats=True)
                    (activation): ReLU(inplace=True)
                    (depth_conv): Conv2d(22, 22, kernel_size=(7, 7), stride=(1, 1), padding=(3, 3), groups=22, bias=False)
                    (point_conv): Conv2d(22, 22, kernel_size=(1, 1), stride=(1, 1), bias=False)
                  )
                )
                (child_nodes): ModuleList(
                  (0): None
                  (1): None
                )
              )
              (1): TreeNode(
                (edges): ModuleList(
                  (0): DepthConvLayer(
                    (bn): BatchNorm2d(44, eps=1e-05, momentum=0.1, affine=True, track_running_stats=True)
                    (activation): ReLU(inplace=True)
                    (depth_conv): Conv2d(44, 44, kernel_size=(3, 3), stride=(1, 1), padding=(1, 1), groups=44, bias=False)
                    (point_conv): Conv2d(44, 44, kernel_size=(1, 1), stride=(1, 1), bias=False)
                  )
                  (1): DepthConvLayer(
                    (bn): BatchNorm2d(44, eps=1e-05, momentum=0.1, affine=True, track_running_stats=True)
                    (activation): ReLU(inplace=True)
                    (depth_conv): Conv2d(44, 44, kernel_size=(5, 5), stride=(1, 1), padding=(2, 2), groups=44, bias=False)
                    (point_conv): Conv2d(44, 44, kernel_size=(1, 1), stride=(1, 1), bias=False)
                  )
                )
                (child_nodes): ModuleList(
                  (0): None
                  (1): None
                )
              )
            )
          )
          (1): TreeNode(
            (edges): ModuleList(
              (0): DepthConvLayer(
                (bn): BatchNorm2d(44, eps=1e-05, momentum=0.1, affine=True, track_running_stats=True)
                (activation): ReLU(inplace=True)
                (depth_conv): Conv2d(44, 44, kernel_size=(5, 5), stride=(1, 1), padding=(2, 2), groups=44, bias=False)
                (point_conv): Conv2d(44, 44, kernel_size=(1, 1), stride=(1, 1), bias=False)
              )
              (1): DepthConvLayer(
                (bn): BatchNorm2d(44, eps=1e-05, momentum=0.1, affine=True, track_running_stats=True)
                (activation): ReLU(inplace=True)
                (depth_conv): Conv2d(44, 44, kernel_size=(3, 3), stride=(1, 1), padding=(1, 1), groups=44, bias=False)
                (point_conv): Conv2d(44, 44, kernel_size=(1, 1), stride=(1, 1), bias=False)
              )
            )
            (child_nodes): ModuleList(
              (0): TreeNode(
                (edges): ModuleList(
                  (0): DepthConvLayer(
                    (bn): BatchNorm2d(44, eps=1e-05, momentum=0.1, affine=True, track_running_stats=True)
                    (activation): ReLU(inplace=True)
                    (depth_conv): Conv2d(44, 44, kernel_size=(5, 5), stride=(1, 1), padding=(2, 2), groups=44, bias=False)
                    (point_conv): Conv2d(44, 44, kernel_size=(1, 1), stride=(1, 1), bias=False)
                  )
                  (1): PoolingLayer(
                    (pool): AvgPool2d(kernel_size=3, stride=1, padding=1)
                  )
                  (2): PoolingLayer(
                    (pool): AvgPool2d(kernel_size=3, stride=1, padding=1)
                  )
                )
                (child_nodes): ModuleList(
                  (0): None
                  (1): None
                  (2): None
                )
              )
              (1): TreeNode(
                (edges): ModuleList(
                  (0): PoolingLayer(
                    (pool): AvgPool2d(kernel_size=3, stride=1, padding=1)
                  )
                  (1): DepthConvLayer(
                    (bn): BatchNorm2d(44, eps=1e-05, momentum=0.1, affine=True, track_running_stats=True)
                    (activation): ReLU(inplace=True)
                    (depth_conv): Conv2d(44, 44, kernel_size=(3, 3), stride=(1, 1), padding=(1, 1), groups=44, bias=False)
                    (point_conv): Conv2d(44, 44, kernel_size=(1, 1), stride=(1, 1), bias=False)
                  )
                )
                (child_nodes): ModuleList(
                  (0): None
                  (1): None
                )
              )
            )
          )
        )
        (branch_bns): ModuleList(
          (0): BatchNorm2d(44, eps=1e-05, momentum=0.1, affine=True, track_running_stats=True)
          (1): BatchNorm2d(44, eps=1e-05, momentum=0.1, affine=True, track_running_stats=True)
        )
      )
      (in_bottle): ConvLayer(
        (bn): BatchNorm2d(160, eps=1e-05, momentum=0.1, affine=True, track_running_stats=True)
        (conv): Conv2d(160, 44, kernel_size=(1, 1), stride=(1, 1), bias=False)
      )
      (out_bottle): ConvLayer(
        (bn): BatchNorm2d(44, eps=1e-05, momentum=0.1, affine=True, track_running_stats=True)
        (activation): ReLU(inplace=True)
        (conv): Conv2d(44, 176, kernel_size=(1, 1), stride=(1, 1), bias=False)
      )
      (shortcut): IdentityLayer()
      (final_bn): BatchNorm2d(176, eps=1e-05, momentum=0.1, affine=True, track_running_stats=True)
    )
    (11): ResidualBlock(
      (cell): TreeNode(
        (edges): ModuleList(
          (0): ConvLayer(
            (bn): BatchNorm2d(46, eps=1e-05, momentum=0.1, affine=True, track_running_stats=True)
            (activation): ReLU(inplace=True)
            (conv): Conv2d(46, 46, kernel_size=(3, 3), stride=(1, 1), padding=(1, 1), groups=2, bias=False)
          )
          (1): ConvLayer(
            (bn): BatchNorm2d(46, eps=1e-05, momentum=0.1, affine=True, track_running_stats=True)
            (activation): ReLU(inplace=True)
            (conv): Conv2d(46, 46, kernel_size=(3, 3), stride=(1, 1), padding=(1, 1), groups=2, bias=False)
          )
        )
        (child_nodes): ModuleList(
          (0): TreeNode(
            (edges): ModuleList(
              (0): ConvLayer(
                (bn): BatchNorm2d(46, eps=1e-05, momentum=0.1, affine=True, track_running_stats=True)
                (activation): ReLU(inplace=True)
                (conv): Conv2d(46, 46, kernel_size=(1, 1), stride=(1, 1), bias=False)
              )
              (1): PoolingLayer(
                (pool): MaxPool2d(kernel_size=3, stride=1, padding=1, dilation=1, ceil_mode=False)
              )
            )
            (child_nodes): ModuleList(
              (0): TreeNode(
                (edges): ModuleList(
                  (0): PoolingLayer(
                    (pool): AvgPool2d(kernel_size=3, stride=1, padding=1)
                  )
                  (1): DepthConvLayer(
                    (bn): BatchNorm2d(23, eps=1e-05, momentum=0.1, affine=True, track_running_stats=True)
                    (activation): ReLU(inplace=True)
                    (depth_conv): Conv2d(23, 23, kernel_size=(7, 7), stride=(1, 1), padding=(3, 3), groups=23, bias=False)
                    (point_conv): Conv2d(23, 23, kernel_size=(1, 1), stride=(1, 1), bias=False)
                  )
                )
                (child_nodes): ModuleList(
                  (0): None
                  (1): None
                )
              )
              (1): TreeNode(
                (edges): ModuleList(
                  (0): DepthConvLayer(
                    (bn): BatchNorm2d(46, eps=1e-05, momentum=0.1, affine=True, track_running_stats=True)
                    (activation): ReLU(inplace=True)
                    (depth_conv): Conv2d(46, 46, kernel_size=(3, 3), stride=(1, 1), padding=(1, 1), groups=46, bias=False)
                    (point_conv): Conv2d(46, 46, kernel_size=(1, 1), stride=(1, 1), bias=False)
                  )
                  (1): DepthConvLayer(
                    (bn): BatchNorm2d(46, eps=1e-05, momentum=0.1, affine=True, track_running_stats=True)
                    (activation): ReLU(inplace=True)
                    (depth_conv): Conv2d(46, 46, kernel_size=(5, 5), stride=(1, 1), padding=(2, 2), groups=46, bias=False)
                    (point_conv): Conv2d(46, 46, kernel_size=(1, 1), stride=(1, 1), bias=False)
                  )
                )
                (child_nodes): ModuleList(
                  (0): None
                  (1): None
                )
              )
            )
          )
          (1): TreeNode(
            (edges): ModuleList(
              (0): DepthConvLayer(
                (bn): BatchNorm2d(46, eps=1e-05, momentum=0.1, affine=True, track_running_stats=True)
                (activation): ReLU(inplace=True)
                (depth_conv): Conv2d(46, 46, kernel_size=(5, 5), stride=(1, 1), padding=(2, 2), groups=46, bias=False)
                (point_conv): Conv2d(46, 46, kernel_size=(1, 1), stride=(1, 1), bias=False)
              )
              (1): DepthConvLayer(
                (bn): BatchNorm2d(46, eps=1e-05, momentum=0.1, affine=True, track_running_stats=True)
                (activation): ReLU(inplace=True)
                (depth_conv): Conv2d(46, 46, kernel_size=(3, 3), stride=(1, 1), padding=(1, 1), groups=46, bias=False)
                (point_conv): Conv2d(46, 46, kernel_size=(1, 1), stride=(1, 1), bias=False)
              )
            )
            (child_nodes): ModuleList(
              (0): TreeNode(
                (edges): ModuleList(
                  (0): DepthConvLayer(
                    (bn): BatchNorm2d(46, eps=1e-05, momentum=0.1, affine=True, track_running_stats=True)
                    (activation): ReLU(inplace=True)
                    (depth_conv): Conv2d(46, 46, kernel_size=(5, 5), stride=(1, 1), padding=(2, 2), groups=46, bias=False)
                    (point_conv): Conv2d(46, 46, kernel_size=(1, 1), stride=(1, 1), bias=False)
                  )
                  (1): PoolingLayer(
                    (pool): AvgPool2d(kernel_size=3, stride=1, padding=1)
                  )
                  (2): PoolingLayer(
                    (pool): AvgPool2d(kernel_size=3, stride=1, padding=1)
                  )
                )
                (child_nodes): ModuleList(
                  (0): None
                  (1): None
                  (2): None
                )
              )
              (1): TreeNode(
                (edges): ModuleList(
                  (0): PoolingLayer(
                    (pool): AvgPool2d(kernel_size=3, stride=1, padding=1)
                  )
                  (1): DepthConvLayer(
                    (bn): BatchNorm2d(46, eps=1e-05, momentum=0.1, affine=True, track_running_stats=True)
                    (activation): ReLU(inplace=True)
                    (depth_conv): Conv2d(46, 46, kernel_size=(3, 3), stride=(1, 1), padding=(1, 1), groups=46, bias=False)
                    (point_conv): Conv2d(46, 46, kernel_size=(1, 1), stride=(1, 1), bias=False)
                  )
                )
                (child_nodes): ModuleList(
                  (0): None
                  (1): None
                )
              )
            )
          )
        )
        (branch_bns): ModuleList(
          (0): BatchNorm2d(46, eps=1e-05, momentum=0.1, affine=True, track_running_stats=True)
          (1): BatchNorm2d(46, eps=1e-05, momentum=0.1, affine=True, track_running_stats=True)
        )
      )
      (in_bottle): ConvLayer(
        (bn): BatchNorm2d(176, eps=1e-05, momentum=0.1, affine=True, track_running_stats=True)
        (conv): Conv2d(176, 46, kernel_size=(1, 1), stride=(1, 1), bias=False)
      )
      (out_bottle): ConvLayer(
        (bn): BatchNorm2d(46, eps=1e-05, momentum=0.1, affine=True, track_running_stats=True)
        (activation): ReLU(inplace=True)
        (conv): Conv2d(46, 184, kernel_size=(1, 1), stride=(1, 1), bias=False)
      )
      (shortcut): IdentityLayer()
      (final_bn): BatchNorm2d(184, eps=1e-05, momentum=0.1, affine=True, track_running_stats=True)
    )
    (12): ResidualBlock(
      (cell): TreeNode(
        (edges): ModuleList(
          (0): ConvLayer(
            (bn): BatchNorm2d(48, eps=1e-05, momentum=0.1, affine=True, track_running_stats=True)
            (activation): ReLU(inplace=True)
            (conv): Conv2d(48, 48, kernel_size=(3, 3), stride=(1, 1), padding=(1, 1), groups=2, bias=False)
          )
          (1): ConvLayer(
            (bn): BatchNorm2d(48, eps=1e-05, momentum=0.1, affine=True, track_running_stats=True)
            (activation): ReLU(inplace=True)
            (conv): Conv2d(48, 48, kernel_size=(3, 3), stride=(1, 1), padding=(1, 1), groups=2, bias=False)
          )
        )
        (child_nodes): ModuleList(
          (0): TreeNode(
            (edges): ModuleList(
              (0): ConvLayer(
                (bn): BatchNorm2d(48, eps=1e-05, momentum=0.1, affine=True, track_running_stats=True)
                (activation): ReLU(inplace=True)
                (conv): Conv2d(48, 48, kernel_size=(1, 1), stride=(1, 1), bias=False)
              )
              (1): PoolingLayer(
                (pool): MaxPool2d(kernel_size=3, stride=1, padding=1, dilation=1, ceil_mode=False)
              )
            )
            (child_nodes): ModuleList(
              (0): TreeNode(
                (edges): ModuleList(
                  (0): PoolingLayer(
                    (pool): AvgPool2d(kernel_size=3, stride=1, padding=1)
                  )
                  (1): DepthConvLayer(
                    (bn): BatchNorm2d(24, eps=1e-05, momentum=0.1, affine=True, track_running_stats=True)
                    (activation): ReLU(inplace=True)
                    (depth_conv): Conv2d(24, 24, kernel_size=(7, 7), stride=(1, 1), padding=(3, 3), groups=24, bias=False)
                    (point_conv): Conv2d(24, 24, kernel_size=(1, 1), stride=(1, 1), bias=False)
                  )
                )
                (child_nodes): ModuleList(
                  (0): None
                  (1): None
                )
              )
              (1): TreeNode(
                (edges): ModuleList(
                  (0): DepthConvLayer(
                    (bn): BatchNorm2d(48, eps=1e-05, momentum=0.1, affine=True, track_running_stats=True)
                    (activation): ReLU(inplace=True)
                    (depth_conv): Conv2d(48, 48, kernel_size=(3, 3), stride=(1, 1), padding=(1, 1), groups=48, bias=False)
                    (point_conv): Conv2d(48, 48, kernel_size=(1, 1), stride=(1, 1), bias=False)
                  )
                  (1): DepthConvLayer(
                    (bn): BatchNorm2d(48, eps=1e-05, momentum=0.1, affine=True, track_running_stats=True)
                    (activation): ReLU(inplace=True)
                    (depth_conv): Conv2d(48, 48, kernel_size=(5, 5), stride=(1, 1), padding=(2, 2), groups=48, bias=False)
                    (point_conv): Conv2d(48, 48, kernel_size=(1, 1), stride=(1, 1), bias=False)
                  )
                )
                (child_nodes): ModuleList(
                  (0): None
                  (1): None
                )
              )
            )
          )
          (1): TreeNode(
            (edges): ModuleList(
              (0): DepthConvLayer(
                (bn): BatchNorm2d(48, eps=1e-05, momentum=0.1, affine=True, track_running_stats=True)
                (activation): ReLU(inplace=True)
                (depth_conv): Conv2d(48, 48, kernel_size=(5, 5), stride=(1, 1), padding=(2, 2), groups=48, bias=False)
                (point_conv): Conv2d(48, 48, kernel_size=(1, 1), stride=(1, 1), bias=False)
              )
              (1): DepthConvLayer(
                (bn): BatchNorm2d(48, eps=1e-05, momentum=0.1, affine=True, track_running_stats=True)
                (activation): ReLU(inplace=True)
                (depth_conv): Conv2d(48, 48, kernel_size=(3, 3), stride=(1, 1), padding=(1, 1), groups=48, bias=False)
                (point_conv): Conv2d(48, 48, kernel_size=(1, 1), stride=(1, 1), bias=False)
              )
            )
            (child_nodes): ModuleList(
              (0): TreeNode(
                (edges): ModuleList(
                  (0): DepthConvLayer(
                    (bn): BatchNorm2d(48, eps=1e-05, momentum=0.1, affine=True, track_running_stats=True)
                    (activation): ReLU(inplace=True)
                    (depth_conv): Conv2d(48, 48, kernel_size=(5, 5), stride=(1, 1), padding=(2, 2), groups=48, bias=False)
                    (point_conv): Conv2d(48, 48, kernel_size=(1, 1), stride=(1, 1), bias=False)
                  )
                  (1): PoolingLayer(
                    (pool): AvgPool2d(kernel_size=3, stride=1, padding=1)
                  )
                  (2): PoolingLayer(
                    (pool): AvgPool2d(kernel_size=3, stride=1, padding=1)
                  )
                )
                (child_nodes): ModuleList(
                  (0): None
                  (1): None
                  (2): None
                )
              )
              (1): TreeNode(
                (edges): ModuleList(
                  (0): PoolingLayer(
                    (pool): AvgPool2d(kernel_size=3, stride=1, padding=1)
                  )
                  (1): DepthConvLayer(
                    (bn): BatchNorm2d(48, eps=1e-05, momentum=0.1, affine=True, track_running_stats=True)
                    (activation): ReLU(inplace=True)
                    (depth_conv): Conv2d(48, 48, kernel_size=(3, 3), stride=(1, 1), padding=(1, 1), groups=48, bias=False)
                    (point_conv): Conv2d(48, 48, kernel_size=(1, 1), stride=(1, 1), bias=False)
                  )
                )
                (child_nodes): ModuleList(
                  (0): None
                  (1): None
                )
              )
            )
          )
        )
        (branch_bns): ModuleList(
          (0): BatchNorm2d(48, eps=1e-05, momentum=0.1, affine=True, track_running_stats=True)
          (1): BatchNorm2d(48, eps=1e-05, momentum=0.1, affine=True, track_running_stats=True)
        )
      )
      (in_bottle): ConvLayer(
        (bn): BatchNorm2d(184, eps=1e-05, momentum=0.1, affine=True, track_running_stats=True)
        (conv): Conv2d(184, 48, kernel_size=(1, 1), stride=(1, 1), bias=False)
      )
      (out_bottle): ConvLayer(
        (bn): BatchNorm2d(48, eps=1e-05, momentum=0.1, affine=True, track_running_stats=True)
        (activation): ReLU(inplace=True)
        (conv): Conv2d(48, 192, kernel_size=(1, 1), stride=(1, 1), bias=False)
      )
      (shortcut): IdentityLayer()
      (final_bn): BatchNorm2d(192, eps=1e-05, momentum=0.1, affine=True, track_running_stats=True)
    )
    (13): ResidualBlock(
      (cell): TreeNode(
        (edges): ModuleList(
          (0): ConvLayer(
            (bn): BatchNorm2d(52, eps=1e-05, momentum=0.1, affine=True, track_running_stats=True)
            (activation): ReLU(inplace=True)
            (conv): Conv2d(52, 52, kernel_size=(3, 3), stride=(1, 1), padding=(1, 1), groups=2, bias=False)
          )
          (1): ConvLayer(
            (bn): BatchNorm2d(52, eps=1e-05, momentum=0.1, affine=True, track_running_stats=True)
            (activation): ReLU(inplace=True)
            (conv): Conv2d(52, 52, kernel_size=(3, 3), stride=(1, 1), padding=(1, 1), groups=2, bias=False)
          )
        )
        (child_nodes): ModuleList(
          (0): TreeNode(
            (edges): ModuleList(
              (0): ConvLayer(
                (bn): BatchNorm2d(52, eps=1e-05, momentum=0.1, affine=True, track_running_stats=True)
                (activation): ReLU(inplace=True)
                (conv): Conv2d(52, 52, kernel_size=(1, 1), stride=(1, 1), bias=False)
              )
              (1): PoolingLayer(
                (pool): MaxPool2d(kernel_size=3, stride=1, padding=1, dilation=1, ceil_mode=False)
              )
            )
            (child_nodes): ModuleList(
              (0): TreeNode(
                (edges): ModuleList(
                  (0): PoolingLayer(
                    (pool): AvgPool2d(kernel_size=3, stride=1, padding=1)
                  )
                  (1): DepthConvLayer(
                    (bn): BatchNorm2d(26, eps=1e-05, momentum=0.1, affine=True, track_running_stats=True)
                    (activation): ReLU(inplace=True)
                    (depth_conv): Conv2d(26, 26, kernel_size=(7, 7), stride=(1, 1), padding=(3, 3), groups=26, bias=False)
                    (point_conv): Conv2d(26, 26, kernel_size=(1, 1), stride=(1, 1), bias=False)
                  )
                )
                (child_nodes): ModuleList(
                  (0): None
                  (1): None
                )
              )
              (1): TreeNode(
                (edges): ModuleList(
                  (0): DepthConvLayer(
                    (bn): BatchNorm2d(52, eps=1e-05, momentum=0.1, affine=True, track_running_stats=True)
                    (activation): ReLU(inplace=True)
                    (depth_conv): Conv2d(52, 52, kernel_size=(3, 3), stride=(1, 1), padding=(1, 1), groups=52, bias=False)
                    (point_conv): Conv2d(52, 52, kernel_size=(1, 1), stride=(1, 1), bias=False)
                  )
                  (1): DepthConvLayer(
                    (bn): BatchNorm2d(52, eps=1e-05, momentum=0.1, affine=True, track_running_stats=True)
                    (activation): ReLU(inplace=True)
                    (depth_conv): Conv2d(52, 52, kernel_size=(5, 5), stride=(1, 1), padding=(2, 2), groups=52, bias=False)
                    (point_conv): Conv2d(52, 52, kernel_size=(1, 1), stride=(1, 1), bias=False)
                  )
                )
                (child_nodes): ModuleList(
                  (0): None
                  (1): None
                )
              )
            )
          )
          (1): TreeNode(
            (edges): ModuleList(
              (0): DepthConvLayer(
                (bn): BatchNorm2d(52, eps=1e-05, momentum=0.1, affine=True, track_running_stats=True)
                (activation): ReLU(inplace=True)
                (depth_conv): Conv2d(52, 52, kernel_size=(5, 5), stride=(1, 1), padding=(2, 2), groups=52, bias=False)
                (point_conv): Conv2d(52, 52, kernel_size=(1, 1), stride=(1, 1), bias=False)
              )
              (1): DepthConvLayer(
                (bn): BatchNorm2d(52, eps=1e-05, momentum=0.1, affine=True, track_running_stats=True)
                (activation): ReLU(inplace=True)
                (depth_conv): Conv2d(52, 52, kernel_size=(3, 3), stride=(1, 1), padding=(1, 1), groups=52, bias=False)
                (point_conv): Conv2d(52, 52, kernel_size=(1, 1), stride=(1, 1), bias=False)
              )
            )
            (child_nodes): ModuleList(
              (0): TreeNode(
                (edges): ModuleList(
                  (0): DepthConvLayer(
                    (bn): BatchNorm2d(52, eps=1e-05, momentum=0.1, affine=True, track_running_stats=True)
                    (activation): ReLU(inplace=True)
                    (depth_conv): Conv2d(52, 52, kernel_size=(5, 5), stride=(1, 1), padding=(2, 2), groups=52, bias=False)
                    (point_conv): Conv2d(52, 52, kernel_size=(1, 1), stride=(1, 1), bias=False)
                  )
                  (1): PoolingLayer(
                    (pool): AvgPool2d(kernel_size=3, stride=1, padding=1)
                  )
                  (2): PoolingLayer(
                    (pool): AvgPool2d(kernel_size=3, stride=1, padding=1)
                  )
                )
                (child_nodes): ModuleList(
                  (0): None
                  (1): None
                  (2): None
                )
              )
              (1): TreeNode(
                (edges): ModuleList(
                  (0): PoolingLayer(
                    (pool): AvgPool2d(kernel_size=3, stride=1, padding=1)
                  )
                  (1): DepthConvLayer(
                    (bn): BatchNorm2d(52, eps=1e-05, momentum=0.1, affine=True, track_running_stats=True)
                    (activation): ReLU(inplace=True)
                    (depth_conv): Conv2d(52, 52, kernel_size=(3, 3), stride=(1, 1), padding=(1, 1), groups=52, bias=False)
                    (point_conv): Conv2d(52, 52, kernel_size=(1, 1), stride=(1, 1), bias=False)
                  )
                )
                (child_nodes): ModuleList(
                  (0): None
                  (1): None
                )
              )
            )
          )
        )
        (branch_bns): ModuleList(
          (0): BatchNorm2d(52, eps=1e-05, momentum=0.1, affine=True, track_running_stats=True)
          (1): BatchNorm2d(52, eps=1e-05, momentum=0.1, affine=True, track_running_stats=True)
        )
      )
      (in_bottle): ConvLayer(
        (bn): BatchNorm2d(192, eps=1e-05, momentum=0.1, affine=True, track_running_stats=True)
        (conv): Conv2d(192, 52, kernel_size=(1, 1), stride=(1, 1), bias=False)
      )
      (out_bottle): ConvLayer(
        (bn): BatchNorm2d(52, eps=1e-05, momentum=0.1, affine=True, track_running_stats=True)
        (activation): ReLU(inplace=True)
        (conv): Conv2d(52, 208, kernel_size=(1, 1), stride=(1, 1), bias=False)
      )
      (shortcut): IdentityLayer()
      (final_bn): BatchNorm2d(208, eps=1e-05, momentum=0.1, affine=True, track_running_stats=True)
    )
    (14): ResidualBlock(
      (cell): TreeNode(
        (edges): ModuleList(
          (0): ConvLayer(
            (bn): BatchNorm2d(54, eps=1e-05, momentum=0.1, affine=True, track_running_stats=True)
            (activation): ReLU(inplace=True)
            (conv): Conv2d(54, 54, kernel_size=(3, 3), stride=(1, 1), padding=(1, 1), groups=2, bias=False)
          )
          (1): ConvLayer(
            (bn): BatchNorm2d(54, eps=1e-05, momentum=0.1, affine=True, track_running_stats=True)
            (activation): ReLU(inplace=True)
            (conv): Conv2d(54, 54, kernel_size=(3, 3), stride=(1, 1), padding=(1, 1), groups=2, bias=False)
          )
        )
        (child_nodes): ModuleList(
          (0): TreeNode(
            (edges): ModuleList(
              (0): ConvLayer(
                (bn): BatchNorm2d(54, eps=1e-05, momentum=0.1, affine=True, track_running_stats=True)
                (activation): ReLU(inplace=True)
                (conv): Conv2d(54, 54, kernel_size=(1, 1), stride=(1, 1), bias=False)
              )
              (1): PoolingLayer(
                (pool): MaxPool2d(kernel_size=3, stride=1, padding=1, dilation=1, ceil_mode=False)
              )
            )
            (child_nodes): ModuleList(
              (0): TreeNode(
                (edges): ModuleList(
                  (0): PoolingLayer(
                    (pool): AvgPool2d(kernel_size=3, stride=1, padding=1)
                  )
                  (1): DepthConvLayer(
                    (bn): BatchNorm2d(27, eps=1e-05, momentum=0.1, affine=True, track_running_stats=True)
                    (activation): ReLU(inplace=True)
                    (depth_conv): Conv2d(27, 27, kernel_size=(7, 7), stride=(1, 1), padding=(3, 3), groups=27, bias=False)
                    (point_conv): Conv2d(27, 27, kernel_size=(1, 1), stride=(1, 1), bias=False)
                  )
                )
                (child_nodes): ModuleList(
                  (0): None
                  (1): None
                )
              )
              (1): TreeNode(
                (edges): ModuleList(
                  (0): DepthConvLayer(
                    (bn): BatchNorm2d(54, eps=1e-05, momentum=0.1, affine=True, track_running_stats=True)
                    (activation): ReLU(inplace=True)
                    (depth_conv): Conv2d(54, 54, kernel_size=(3, 3), stride=(1, 1), padding=(1, 1), groups=54, bias=False)
                    (point_conv): Conv2d(54, 54, kernel_size=(1, 1), stride=(1, 1), bias=False)
                  )
                  (1): DepthConvLayer(
                    (bn): BatchNorm2d(54, eps=1e-05, momentum=0.1, affine=True, track_running_stats=True)
                    (activation): ReLU(inplace=True)
                    (depth_conv): Conv2d(54, 54, kernel_size=(5, 5), stride=(1, 1), padding=(2, 2), groups=54, bias=False)
                    (point_conv): Conv2d(54, 54, kernel_size=(1, 1), stride=(1, 1), bias=False)
                  )
                )
                (child_nodes): ModuleList(
                  (0): None
                  (1): None
                )
              )
            )
          )
          (1): TreeNode(
            (edges): ModuleList(
              (0): DepthConvLayer(
                (bn): BatchNorm2d(54, eps=1e-05, momentum=0.1, affine=True, track_running_stats=True)
                (activation): ReLU(inplace=True)
                (depth_conv): Conv2d(54, 54, kernel_size=(5, 5), stride=(1, 1), padding=(2, 2), groups=54, bias=False)
                (point_conv): Conv2d(54, 54, kernel_size=(1, 1), stride=(1, 1), bias=False)
              )
              (1): DepthConvLayer(
                (bn): BatchNorm2d(54, eps=1e-05, momentum=0.1, affine=True, track_running_stats=True)
                (activation): ReLU(inplace=True)
                (depth_conv): Conv2d(54, 54, kernel_size=(3, 3), stride=(1, 1), padding=(1, 1), groups=54, bias=False)
                (point_conv): Conv2d(54, 54, kernel_size=(1, 1), stride=(1, 1), bias=False)
              )
            )
            (child_nodes): ModuleList(
              (0): TreeNode(
                (edges): ModuleList(
                  (0): DepthConvLayer(
                    (bn): BatchNorm2d(54, eps=1e-05, momentum=0.1, affine=True, track_running_stats=True)
                    (activation): ReLU(inplace=True)
                    (depth_conv): Conv2d(54, 54, kernel_size=(5, 5), stride=(1, 1), padding=(2, 2), groups=54, bias=False)
                    (point_conv): Conv2d(54, 54, kernel_size=(1, 1), stride=(1, 1), bias=False)
                  )
                  (1): PoolingLayer(
                    (pool): AvgPool2d(kernel_size=3, stride=1, padding=1)
                  )
                  (2): PoolingLayer(
                    (pool): AvgPool2d(kernel_size=3, stride=1, padding=1)
                  )
                )
                (child_nodes): ModuleList(
                  (0): None
                  (1): None
                  (2): None
                )
              )
              (1): TreeNode(
                (edges): ModuleList(
                  (0): PoolingLayer(
                    (pool): AvgPool2d(kernel_size=3, stride=1, padding=1)
                  )
                  (1): DepthConvLayer(
                    (bn): BatchNorm2d(54, eps=1e-05, momentum=0.1, affine=True, track_running_stats=True)
                    (activation): ReLU(inplace=True)
                    (depth_conv): Conv2d(54, 54, kernel_size=(3, 3), stride=(1, 1), padding=(1, 1), groups=54, bias=False)
                    (point_conv): Conv2d(54, 54, kernel_size=(1, 1), stride=(1, 1), bias=False)
                  )
                )
                (child_nodes): ModuleList(
                  (0): None
                  (1): None
                )
              )
            )
          )
        )
        (branch_bns): ModuleList(
          (0): BatchNorm2d(54, eps=1e-05, momentum=0.1, affine=True, track_running_stats=True)
          (1): BatchNorm2d(54, eps=1e-05, momentum=0.1, affine=True, track_running_stats=True)
        )
      )
      (in_bottle): ConvLayer(
        (bn): BatchNorm2d(208, eps=1e-05, momentum=0.1, affine=True, track_running_stats=True)
        (conv): Conv2d(208, 54, kernel_size=(1, 1), stride=(1, 1), bias=False)
      )
      (out_bottle): ConvLayer(
        (bn): BatchNorm2d(54, eps=1e-05, momentum=0.1, affine=True, track_running_stats=True)
        (activation): ReLU(inplace=True)
        (conv): Conv2d(54, 216, kernel_size=(1, 1), stride=(1, 1), bias=False)
      )
      (shortcut): IdentityLayer()
      (final_bn): BatchNorm2d(216, eps=1e-05, momentum=0.1, affine=True, track_running_stats=True)
    )
    (15): ResidualBlock(
      (cell): TreeNode(
        (edges): ModuleList(
          (0): ConvLayer(
            (bn): BatchNorm2d(58, eps=1e-05, momentum=0.1, affine=True, track_running_stats=True)
            (activation): ReLU(inplace=True)
            (conv): Conv2d(58, 58, kernel_size=(3, 3), stride=(1, 1), padding=(1, 1), groups=2, bias=False)
          )
          (1): ConvLayer(
            (bn): BatchNorm2d(58, eps=1e-05, momentum=0.1, affine=True, track_running_stats=True)
            (activation): ReLU(inplace=True)
            (conv): Conv2d(58, 58, kernel_size=(3, 3), stride=(1, 1), padding=(1, 1), groups=2, bias=False)
          )
        )
        (child_nodes): ModuleList(
          (0): TreeNode(
            (edges): ModuleList(
              (0): ConvLayer(
                (bn): BatchNorm2d(58, eps=1e-05, momentum=0.1, affine=True, track_running_stats=True)
                (activation): ReLU(inplace=True)
                (conv): Conv2d(58, 58, kernel_size=(1, 1), stride=(1, 1), bias=False)
              )
              (1): PoolingLayer(
                (pool): MaxPool2d(kernel_size=3, stride=1, padding=1, dilation=1, ceil_mode=False)
              )
            )
            (child_nodes): ModuleList(
              (0): TreeNode(
                (edges): ModuleList(
                  (0): PoolingLayer(
                    (pool): AvgPool2d(kernel_size=3, stride=1, padding=1)
                  )
                  (1): DepthConvLayer(
                    (bn): BatchNorm2d(29, eps=1e-05, momentum=0.1, affine=True, track_running_stats=True)
                    (activation): ReLU(inplace=True)
                    (depth_conv): Conv2d(29, 29, kernel_size=(7, 7), stride=(1, 1), padding=(3, 3), groups=29, bias=False)
                    (point_conv): Conv2d(29, 29, kernel_size=(1, 1), stride=(1, 1), bias=False)
                  )
                )
                (child_nodes): ModuleList(
                  (0): None
                  (1): None
                )
              )
              (1): TreeNode(
                (edges): ModuleList(
                  (0): DepthConvLayer(
                    (bn): BatchNorm2d(58, eps=1e-05, momentum=0.1, affine=True, track_running_stats=True)
                    (activation): ReLU(inplace=True)
                    (depth_conv): Conv2d(58, 58, kernel_size=(3, 3), stride=(1, 1), padding=(1, 1), groups=58, bias=False)
                    (point_conv): Conv2d(58, 58, kernel_size=(1, 1), stride=(1, 1), bias=False)
                  )
                  (1): DepthConvLayer(
                    (bn): BatchNorm2d(58, eps=1e-05, momentum=0.1, affine=True, track_running_stats=True)
                    (activation): ReLU(inplace=True)
                    (depth_conv): Conv2d(58, 58, kernel_size=(5, 5), stride=(1, 1), padding=(2, 2), groups=58, bias=False)
                    (point_conv): Conv2d(58, 58, kernel_size=(1, 1), stride=(1, 1), bias=False)
                  )
                )
                (child_nodes): ModuleList(
                  (0): None
                  (1): None
                )
              )
            )
          )
          (1): TreeNode(
            (edges): ModuleList(
              (0): DepthConvLayer(
                (bn): BatchNorm2d(58, eps=1e-05, momentum=0.1, affine=True, track_running_stats=True)
                (activation): ReLU(inplace=True)
                (depth_conv): Conv2d(58, 58, kernel_size=(5, 5), stride=(1, 1), padding=(2, 2), groups=58, bias=False)
                (point_conv): Conv2d(58, 58, kernel_size=(1, 1), stride=(1, 1), bias=False)
              )
              (1): DepthConvLayer(
                (bn): BatchNorm2d(58, eps=1e-05, momentum=0.1, affine=True, track_running_stats=True)
                (activation): ReLU(inplace=True)
                (depth_conv): Conv2d(58, 58, kernel_size=(3, 3), stride=(1, 1), padding=(1, 1), groups=58, bias=False)
                (point_conv): Conv2d(58, 58, kernel_size=(1, 1), stride=(1, 1), bias=False)
              )
            )
            (child_nodes): ModuleList(
              (0): TreeNode(
                (edges): ModuleList(
                  (0): DepthConvLayer(
                    (bn): BatchNorm2d(58, eps=1e-05, momentum=0.1, affine=True, track_running_stats=True)
                    (activation): ReLU(inplace=True)
                    (depth_conv): Conv2d(58, 58, kernel_size=(5, 5), stride=(1, 1), padding=(2, 2), groups=58, bias=False)
                    (point_conv): Conv2d(58, 58, kernel_size=(1, 1), stride=(1, 1), bias=False)
                  )
                  (1): PoolingLayer(
                    (pool): AvgPool2d(kernel_size=3, stride=1, padding=1)
                  )
                  (2): PoolingLayer(
                    (pool): AvgPool2d(kernel_size=3, stride=1, padding=1)
                  )
                )
                (child_nodes): ModuleList(
                  (0): None
                  (1): None
                  (2): None
                )
              )
              (1): TreeNode(
                (edges): ModuleList(
                  (0): PoolingLayer(
                    (pool): AvgPool2d(kernel_size=3, stride=1, padding=1)
                  )
                  (1): DepthConvLayer(
                    (bn): BatchNorm2d(58, eps=1e-05, momentum=0.1, affine=True, track_running_stats=True)
                    (activation): ReLU(inplace=True)
                    (depth_conv): Conv2d(58, 58, kernel_size=(3, 3), stride=(1, 1), padding=(1, 1), groups=58, bias=False)
                    (point_conv): Conv2d(58, 58, kernel_size=(1, 1), stride=(1, 1), bias=False)
                  )
                )
                (child_nodes): ModuleList(
                  (0): None
                  (1): None
                )
              )
            )
          )
        )
        (branch_bns): ModuleList(
          (0): BatchNorm2d(58, eps=1e-05, momentum=0.1, affine=True, track_running_stats=True)
          (1): BatchNorm2d(58, eps=1e-05, momentum=0.1, affine=True, track_running_stats=True)
        )
      )
      (in_bottle): ConvLayer(
        (bn): BatchNorm2d(216, eps=1e-05, momentum=0.1, affine=True, track_running_stats=True)
        (conv): Conv2d(216, 58, kernel_size=(1, 1), stride=(1, 1), bias=False)
      )
      (out_bottle): ConvLayer(
        (bn): BatchNorm2d(58, eps=1e-05, momentum=0.1, affine=True, track_running_stats=True)
        (activation): ReLU(inplace=True)
        (conv): Conv2d(58, 232, kernel_size=(1, 1), stride=(1, 1), bias=False)
      )
      (shortcut): IdentityLayer()
      (final_bn): BatchNorm2d(232, eps=1e-05, momentum=0.1, affine=True, track_running_stats=True)
    )
    (16): ResidualBlock(
      (cell): TreeNode(
        (edges): ModuleList(
          (0): ConvLayer(
            (bn): BatchNorm2d(60, eps=1e-05, momentum=0.1, affine=True, track_running_stats=True)
            (activation): ReLU(inplace=True)
            (conv): Conv2d(60, 60, kernel_size=(3, 3), stride=(1, 1), padding=(1, 1), groups=2, bias=False)
          )
          (1): ConvLayer(
            (bn): BatchNorm2d(60, eps=1e-05, momentum=0.1, affine=True, track_running_stats=True)
            (activation): ReLU(inplace=True)
            (conv): Conv2d(60, 60, kernel_size=(3, 3), stride=(1, 1), padding=(1, 1), groups=2, bias=False)
          )
        )
        (child_nodes): ModuleList(
          (0): TreeNode(
            (edges): ModuleList(
              (0): ConvLayer(
                (bn): BatchNorm2d(60, eps=1e-05, momentum=0.1, affine=True, track_running_stats=True)
                (activation): ReLU(inplace=True)
                (conv): Conv2d(60, 60, kernel_size=(1, 1), stride=(1, 1), bias=False)
              )
              (1): PoolingLayer(
                (pool): MaxPool2d(kernel_size=3, stride=1, padding=1, dilation=1, ceil_mode=False)
              )
            )
            (child_nodes): ModuleList(
              (0): TreeNode(
                (edges): ModuleList(
                  (0): PoolingLayer(
                    (pool): AvgPool2d(kernel_size=3, stride=1, padding=1)
                  )
                  (1): DepthConvLayer(
                    (bn): BatchNorm2d(30, eps=1e-05, momentum=0.1, affine=True, track_running_stats=True)
                    (activation): ReLU(inplace=True)
                    (depth_conv): Conv2d(30, 30, kernel_size=(7, 7), stride=(1, 1), padding=(3, 3), groups=30, bias=False)
                    (point_conv): Conv2d(30, 30, kernel_size=(1, 1), stride=(1, 1), bias=False)
                  )
                )
                (child_nodes): ModuleList(
                  (0): None
                  (1): None
                )
              )
              (1): TreeNode(
                (edges): ModuleList(
                  (0): DepthConvLayer(
                    (bn): BatchNorm2d(60, eps=1e-05, momentum=0.1, affine=True, track_running_stats=True)
                    (activation): ReLU(inplace=True)
                    (depth_conv): Conv2d(60, 60, kernel_size=(3, 3), stride=(1, 1), padding=(1, 1), groups=60, bias=False)
                    (point_conv): Conv2d(60, 60, kernel_size=(1, 1), stride=(1, 1), bias=False)
                  )
                  (1): DepthConvLayer(
                    (bn): BatchNorm2d(60, eps=1e-05, momentum=0.1, affine=True, track_running_stats=True)
                    (activation): ReLU(inplace=True)
                    (depth_conv): Conv2d(60, 60, kernel_size=(5, 5), stride=(1, 1), padding=(2, 2), groups=60, bias=False)
                    (point_conv): Conv2d(60, 60, kernel_size=(1, 1), stride=(1, 1), bias=False)
                  )
                )
                (child_nodes): ModuleList(
                  (0): None
                  (1): None
                )
              )
            )
          )
          (1): TreeNode(
            (edges): ModuleList(
              (0): DepthConvLayer(
                (bn): BatchNorm2d(60, eps=1e-05, momentum=0.1, affine=True, track_running_stats=True)
                (activation): ReLU(inplace=True)
                (depth_conv): Conv2d(60, 60, kernel_size=(5, 5), stride=(1, 1), padding=(2, 2), groups=60, bias=False)
                (point_conv): Conv2d(60, 60, kernel_size=(1, 1), stride=(1, 1), bias=False)
              )
              (1): DepthConvLayer(
                (bn): BatchNorm2d(60, eps=1e-05, momentum=0.1, affine=True, track_running_stats=True)
                (activation): ReLU(inplace=True)
                (depth_conv): Conv2d(60, 60, kernel_size=(3, 3), stride=(1, 1), padding=(1, 1), groups=60, bias=False)
                (point_conv): Conv2d(60, 60, kernel_size=(1, 1), stride=(1, 1), bias=False)
              )
            )
            (child_nodes): ModuleList(
              (0): TreeNode(
                (edges): ModuleList(
                  (0): DepthConvLayer(
                    (bn): BatchNorm2d(60, eps=1e-05, momentum=0.1, affine=True, track_running_stats=True)
                    (activation): ReLU(inplace=True)
                    (depth_conv): Conv2d(60, 60, kernel_size=(5, 5), stride=(1, 1), padding=(2, 2), groups=60, bias=False)
                    (point_conv): Conv2d(60, 60, kernel_size=(1, 1), stride=(1, 1), bias=False)
                  )
                  (1): PoolingLayer(
                    (pool): AvgPool2d(kernel_size=3, stride=1, padding=1)
                  )
                  (2): PoolingLayer(
                    (pool): AvgPool2d(kernel_size=3, stride=1, padding=1)
                  )
                )
                (child_nodes): ModuleList(
                  (0): None
                  (1): None
                  (2): None
                )
              )
              (1): TreeNode(
                (edges): ModuleList(
                  (0): PoolingLayer(
                    (pool): AvgPool2d(kernel_size=3, stride=1, padding=1)
                  )
                  (1): DepthConvLayer(
                    (bn): BatchNorm2d(60, eps=1e-05, momentum=0.1, affine=True, track_running_stats=True)
                    (activation): ReLU(inplace=True)
                    (depth_conv): Conv2d(60, 60, kernel_size=(3, 3), stride=(1, 1), padding=(1, 1), groups=60, bias=False)
                    (point_conv): Conv2d(60, 60, kernel_size=(1, 1), stride=(1, 1), bias=False)
                  )
                )
                (child_nodes): ModuleList(
                  (0): None
                  (1): None
                )
              )
            )
          )
        )
        (branch_bns): ModuleList(
          (0): BatchNorm2d(60, eps=1e-05, momentum=0.1, affine=True, track_running_stats=True)
          (1): BatchNorm2d(60, eps=1e-05, momentum=0.1, affine=True, track_running_stats=True)
        )
      )
      (in_bottle): ConvLayer(
        (bn): BatchNorm2d(232, eps=1e-05, momentum=0.1, affine=True, track_running_stats=True)
        (conv): Conv2d(232, 60, kernel_size=(1, 1), stride=(1, 1), bias=False)
      )
      (out_bottle): ConvLayer(
        (bn): BatchNorm2d(60, eps=1e-05, momentum=0.1, affine=True, track_running_stats=True)
        (activation): ReLU(inplace=True)
        (conv): Conv2d(60, 240, kernel_size=(1, 1), stride=(1, 1), bias=False)
      )
      (shortcut): IdentityLayer()
      (final_bn): BatchNorm2d(240, eps=1e-05, momentum=0.1, affine=True, track_running_stats=True)
    )
    (17): ResidualBlock(
      (cell): TreeNode(
        (edges): ModuleList(
          (0): ConvLayer(
            (bn): BatchNorm2d(62, eps=1e-05, momentum=0.1, affine=True, track_running_stats=True)
            (activation): ReLU(inplace=True)
            (conv): Conv2d(62, 62, kernel_size=(3, 3), stride=(1, 1), padding=(1, 1), groups=2, bias=False)
          )
          (1): ConvLayer(
            (bn): BatchNorm2d(62, eps=1e-05, momentum=0.1, affine=True, track_running_stats=True)
            (activation): ReLU(inplace=True)
            (conv): Conv2d(62, 62, kernel_size=(3, 3), stride=(1, 1), padding=(1, 1), groups=2, bias=False)
          )
        )
        (child_nodes): ModuleList(
          (0): TreeNode(
            (edges): ModuleList(
              (0): ConvLayer(
                (bn): BatchNorm2d(62, eps=1e-05, momentum=0.1, affine=True, track_running_stats=True)
                (activation): ReLU(inplace=True)
                (conv): Conv2d(62, 62, kernel_size=(1, 1), stride=(1, 1), bias=False)
              )
              (1): PoolingLayer(
                (pool): MaxPool2d(kernel_size=3, stride=1, padding=1, dilation=1, ceil_mode=False)
              )
            )
            (child_nodes): ModuleList(
              (0): TreeNode(
                (edges): ModuleList(
                  (0): PoolingLayer(
                    (pool): AvgPool2d(kernel_size=3, stride=1, padding=1)
                  )
                  (1): DepthConvLayer(
                    (bn): BatchNorm2d(31, eps=1e-05, momentum=0.1, affine=True, track_running_stats=True)
                    (activation): ReLU(inplace=True)
                    (depth_conv): Conv2d(31, 31, kernel_size=(7, 7), stride=(1, 1), padding=(3, 3), groups=31, bias=False)
                    (point_conv): Conv2d(31, 31, kernel_size=(1, 1), stride=(1, 1), bias=False)
                  )
                )
                (child_nodes): ModuleList(
                  (0): None
                  (1): None
                )
              )
              (1): TreeNode(
                (edges): ModuleList(
                  (0): DepthConvLayer(
                    (bn): BatchNorm2d(62, eps=1e-05, momentum=0.1, affine=True, track_running_stats=True)
                    (activation): ReLU(inplace=True)
                    (depth_conv): Conv2d(62, 62, kernel_size=(3, 3), stride=(1, 1), padding=(1, 1), groups=62, bias=False)
                    (point_conv): Conv2d(62, 62, kernel_size=(1, 1), stride=(1, 1), bias=False)
                  )
                  (1): DepthConvLayer(
                    (bn): BatchNorm2d(62, eps=1e-05, momentum=0.1, affine=True, track_running_stats=True)
                    (activation): ReLU(inplace=True)
                    (depth_conv): Conv2d(62, 62, kernel_size=(5, 5), stride=(1, 1), padding=(2, 2), groups=62, bias=False)
                    (point_conv): Conv2d(62, 62, kernel_size=(1, 1), stride=(1, 1), bias=False)
                  )
                )
                (child_nodes): ModuleList(
                  (0): None
                  (1): None
                )
              )
            )
          )
          (1): TreeNode(
            (edges): ModuleList(
              (0): DepthConvLayer(
                (bn): BatchNorm2d(62, eps=1e-05, momentum=0.1, affine=True, track_running_stats=True)
                (activation): ReLU(inplace=True)
                (depth_conv): Conv2d(62, 62, kernel_size=(5, 5), stride=(1, 1), padding=(2, 2), groups=62, bias=False)
                (point_conv): Conv2d(62, 62, kernel_size=(1, 1), stride=(1, 1), bias=False)
              )
              (1): DepthConvLayer(
                (bn): BatchNorm2d(62, eps=1e-05, momentum=0.1, affine=True, track_running_stats=True)
                (activation): ReLU(inplace=True)
                (depth_conv): Conv2d(62, 62, kernel_size=(3, 3), stride=(1, 1), padding=(1, 1), groups=62, bias=False)
                (point_conv): Conv2d(62, 62, kernel_size=(1, 1), stride=(1, 1), bias=False)
              )
            )
            (child_nodes): ModuleList(
              (0): TreeNode(
                (edges): ModuleList(
                  (0): DepthConvLayer(
                    (bn): BatchNorm2d(62, eps=1e-05, momentum=0.1, affine=True, track_running_stats=True)
                    (activation): ReLU(inplace=True)
                    (depth_conv): Conv2d(62, 62, kernel_size=(5, 5), stride=(1, 1), padding=(2, 2), groups=62, bias=False)
                    (point_conv): Conv2d(62, 62, kernel_size=(1, 1), stride=(1, 1), bias=False)
                  )
                  (1): PoolingLayer(
                    (pool): AvgPool2d(kernel_size=3, stride=1, padding=1)
                  )
                  (2): PoolingLayer(
                    (pool): AvgPool2d(kernel_size=3, stride=1, padding=1)
                  )
                )
                (child_nodes): ModuleList(
                  (0): None
                  (1): None
                  (2): None
                )
              )
              (1): TreeNode(
                (edges): ModuleList(
                  (0): PoolingLayer(
                    (pool): AvgPool2d(kernel_size=3, stride=1, padding=1)
                  )
                  (1): DepthConvLayer(
                    (bn): BatchNorm2d(62, eps=1e-05, momentum=0.1, affine=True, track_running_stats=True)
                    (activation): ReLU(inplace=True)
                    (depth_conv): Conv2d(62, 62, kernel_size=(3, 3), stride=(1, 1), padding=(1, 1), groups=62, bias=False)
                    (point_conv): Conv2d(62, 62, kernel_size=(1, 1), stride=(1, 1), bias=False)
                  )
                )
                (child_nodes): ModuleList(
                  (0): None
                  (1): None
                )
              )
            )
          )
        )
        (branch_bns): ModuleList(
          (0): BatchNorm2d(62, eps=1e-05, momentum=0.1, affine=True, track_running_stats=True)
          (1): BatchNorm2d(62, eps=1e-05, momentum=0.1, affine=True, track_running_stats=True)
        )
      )
      (in_bottle): ConvLayer(
        (bn): BatchNorm2d(240, eps=1e-05, momentum=0.1, affine=True, track_running_stats=True)
        (conv): Conv2d(240, 62, kernel_size=(1, 1), stride=(1, 1), bias=False)
      )
      (out_bottle): ConvLayer(
        (bn): BatchNorm2d(62, eps=1e-05, momentum=0.1, affine=True, track_running_stats=True)
        (activation): ReLU(inplace=True)
        (conv): Conv2d(62, 248, kernel_size=(1, 1), stride=(1, 1), bias=False)
      )
      (shortcut): IdentityLayer()
      (final_bn): BatchNorm2d(248, eps=1e-05, momentum=0.1, affine=True, track_running_stats=True)
    )
    (18): ResidualBlock(
      (cell): TreeNode(
        (edges): ModuleList(
          (0): ConvLayer(
            (bn): BatchNorm2d(66, eps=1e-05, momentum=0.1, affine=True, track_running_stats=True)
            (activation): ReLU(inplace=True)
            (conv): Conv2d(66, 66, kernel_size=(3, 3), stride=(1, 1), padding=(1, 1), groups=2, bias=False)
          )
          (1): ConvLayer(
            (bn): BatchNorm2d(66, eps=1e-05, momentum=0.1, affine=True, track_running_stats=True)
            (activation): ReLU(inplace=True)
            (conv): Conv2d(66, 66, kernel_size=(3, 3), stride=(1, 1), padding=(1, 1), groups=2, bias=False)
          )
        )
        (child_nodes): ModuleList(
          (0): TreeNode(
            (edges): ModuleList(
              (0): ConvLayer(
                (bn): BatchNorm2d(66, eps=1e-05, momentum=0.1, affine=True, track_running_stats=True)
                (activation): ReLU(inplace=True)
                (conv): Conv2d(66, 66, kernel_size=(1, 1), stride=(1, 1), bias=False)
              )
              (1): PoolingLayer(
                (pool): MaxPool2d(kernel_size=3, stride=1, padding=1, dilation=1, ceil_mode=False)
              )
            )
            (child_nodes): ModuleList(
              (0): TreeNode(
                (edges): ModuleList(
                  (0): PoolingLayer(
                    (pool): AvgPool2d(kernel_size=3, stride=1, padding=1)
                  )
                  (1): DepthConvLayer(
                    (bn): BatchNorm2d(33, eps=1e-05, momentum=0.1, affine=True, track_running_stats=True)
                    (activation): ReLU(inplace=True)
                    (depth_conv): Conv2d(33, 33, kernel_size=(7, 7), stride=(1, 1), padding=(3, 3), groups=33, bias=False)
                    (point_conv): Conv2d(33, 33, kernel_size=(1, 1), stride=(1, 1), bias=False)
                  )
                )
                (child_nodes): ModuleList(
                  (0): None
                  (1): None
                )
              )
              (1): TreeNode(
                (edges): ModuleList(
                  (0): DepthConvLayer(
                    (bn): BatchNorm2d(66, eps=1e-05, momentum=0.1, affine=True, track_running_stats=True)
                    (activation): ReLU(inplace=True)
                    (depth_conv): Conv2d(66, 66, kernel_size=(3, 3), stride=(1, 1), padding=(1, 1), groups=66, bias=False)
                    (point_conv): Conv2d(66, 66, kernel_size=(1, 1), stride=(1, 1), bias=False)
                  )
                  (1): DepthConvLayer(
                    (bn): BatchNorm2d(66, eps=1e-05, momentum=0.1, affine=True, track_running_stats=True)
                    (activation): ReLU(inplace=True)
                    (depth_conv): Conv2d(66, 66, kernel_size=(5, 5), stride=(1, 1), padding=(2, 2), groups=66, bias=False)
                    (point_conv): Conv2d(66, 66, kernel_size=(1, 1), stride=(1, 1), bias=False)
                  )
                )
                (child_nodes): ModuleList(
                  (0): None
                  (1): None
                )
              )
            )
          )
          (1): TreeNode(
            (edges): ModuleList(
              (0): DepthConvLayer(
                (bn): BatchNorm2d(66, eps=1e-05, momentum=0.1, affine=True, track_running_stats=True)
                (activation): ReLU(inplace=True)
                (depth_conv): Conv2d(66, 66, kernel_size=(5, 5), stride=(1, 1), padding=(2, 2), groups=66, bias=False)
                (point_conv): Conv2d(66, 66, kernel_size=(1, 1), stride=(1, 1), bias=False)
              )
              (1): DepthConvLayer(
                (bn): BatchNorm2d(66, eps=1e-05, momentum=0.1, affine=True, track_running_stats=True)
                (activation): ReLU(inplace=True)
                (depth_conv): Conv2d(66, 66, kernel_size=(3, 3), stride=(1, 1), padding=(1, 1), groups=66, bias=False)
                (point_conv): Conv2d(66, 66, kernel_size=(1, 1), stride=(1, 1), bias=False)
              )
            )
            (child_nodes): ModuleList(
              (0): TreeNode(
                (edges): ModuleList(
                  (0): DepthConvLayer(
                    (bn): BatchNorm2d(66, eps=1e-05, momentum=0.1, affine=True, track_running_stats=True)
                    (activation): ReLU(inplace=True)
                    (depth_conv): Conv2d(66, 66, kernel_size=(5, 5), stride=(1, 1), padding=(2, 2), groups=66, bias=False)
                    (point_conv): Conv2d(66, 66, kernel_size=(1, 1), stride=(1, 1), bias=False)
                  )
                  (1): PoolingLayer(
                    (pool): AvgPool2d(kernel_size=3, stride=1, padding=1)
                  )
                  (2): PoolingLayer(
                    (pool): AvgPool2d(kernel_size=3, stride=1, padding=1)
                  )
                )
                (child_nodes): ModuleList(
                  (0): None
                  (1): None
                  (2): None
                )
              )
              (1): TreeNode(
                (edges): ModuleList(
                  (0): PoolingLayer(
                    (pool): AvgPool2d(kernel_size=3, stride=1, padding=1)
                  )
                  (1): DepthConvLayer(
                    (bn): BatchNorm2d(66, eps=1e-05, momentum=0.1, affine=True, track_running_stats=True)
                    (activation): ReLU(inplace=True)
                    (depth_conv): Conv2d(66, 66, kernel_size=(3, 3), stride=(1, 1), padding=(1, 1), groups=66, bias=False)
                    (point_conv): Conv2d(66, 66, kernel_size=(1, 1), stride=(1, 1), bias=False)
                  )
                )
                (child_nodes): ModuleList(
                  (0): None
                  (1): None
                )
              )
            )
          )
        )
        (branch_bns): ModuleList(
          (0): BatchNorm2d(66, eps=1e-05, momentum=0.1, affine=True, track_running_stats=True)
          (1): BatchNorm2d(66, eps=1e-05, momentum=0.1, affine=True, track_running_stats=True)
        )
      )
      (in_bottle): ConvLayer(
        (bn): BatchNorm2d(248, eps=1e-05, momentum=0.1, affine=True, track_running_stats=True)
        (conv): Conv2d(248, 66, kernel_size=(1, 1), stride=(1, 1), bias=False)
      )
      (out_bottle): ConvLayer(
        (bn): BatchNorm2d(66, eps=1e-05, momentum=0.1, affine=True, track_running_stats=True)
        (activation): ReLU(inplace=True)
        (conv): Conv2d(66, 264, kernel_size=(1, 1), stride=(1, 1), bias=False)
      )
      (shortcut): IdentityLayer()
      (final_bn): BatchNorm2d(264, eps=1e-05, momentum=0.1, affine=True, track_running_stats=True)
    )
    (19): ResidualBlock(
      (cell): TreeNode(
        (edges): ModuleList(
          (0): ConvLayer(
            (bn): BatchNorm2d(68, eps=1e-05, momentum=0.1, affine=True, track_running_stats=True)
            (activation): ReLU(inplace=True)
            (conv): Conv2d(68, 68, kernel_size=(3, 3), stride=(2, 2), padding=(1, 1), groups=2, bias=False)
          )
          (1): ConvLayer(
            (bn): BatchNorm2d(68, eps=1e-05, momentum=0.1, affine=True, track_running_stats=True)
            (activation): ReLU(inplace=True)
            (conv): Conv2d(68, 68, kernel_size=(3, 3), stride=(2, 2), padding=(1, 1), groups=2, bias=False)
          )
        )
        (child_nodes): ModuleList(
          (0): TreeNode(
            (edges): ModuleList(
              (0): ConvLayer(
                (bn): BatchNorm2d(68, eps=1e-05, momentum=0.1, affine=True, track_running_stats=True)
                (activation): ReLU(inplace=True)
                (conv): Conv2d(68, 68, kernel_size=(1, 1), stride=(1, 1), bias=False)
              )
              (1): PoolingLayer(
                (pool): MaxPool2d(kernel_size=3, stride=1, padding=1, dilation=1, ceil_mode=False)
              )
            )
            (child_nodes): ModuleList(
              (0): TreeNode(
                (edges): ModuleList(
                  (0): PoolingLayer(
                    (pool): AvgPool2d(kernel_size=3, stride=1, padding=1)
                  )
                  (1): DepthConvLayer(
                    (bn): BatchNorm2d(34, eps=1e-05, momentum=0.1, affine=True, track_running_stats=True)
                    (activation): ReLU(inplace=True)
                    (depth_conv): Conv2d(34, 34, kernel_size=(7, 7), stride=(1, 1), padding=(3, 3), groups=34, bias=False)
                    (point_conv): Conv2d(34, 34, kernel_size=(1, 1), stride=(1, 1), bias=False)
                  )
                )
                (child_nodes): ModuleList(
                  (0): None
                  (1): None
                )
              )
              (1): TreeNode(
                (edges): ModuleList(
                  (0): DepthConvLayer(
                    (bn): BatchNorm2d(68, eps=1e-05, momentum=0.1, affine=True, track_running_stats=True)
                    (activation): ReLU(inplace=True)
                    (depth_conv): Conv2d(68, 68, kernel_size=(3, 3), stride=(1, 1), padding=(1, 1), groups=68, bias=False)
                    (point_conv): Conv2d(68, 68, kernel_size=(1, 1), stride=(1, 1), bias=False)
                  )
                  (1): DepthConvLayer(
                    (bn): BatchNorm2d(68, eps=1e-05, momentum=0.1, affine=True, track_running_stats=True)
                    (activation): ReLU(inplace=True)
                    (depth_conv): Conv2d(68, 68, kernel_size=(5, 5), stride=(1, 1), padding=(2, 2), groups=68, bias=False)
                    (point_conv): Conv2d(68, 68, kernel_size=(1, 1), stride=(1, 1), bias=False)
                  )
                )
                (child_nodes): ModuleList(
                  (0): None
                  (1): None
                )
              )
            )
          )
          (1): TreeNode(
            (edges): ModuleList(
              (0): DepthConvLayer(
                (bn): BatchNorm2d(68, eps=1e-05, momentum=0.1, affine=True, track_running_stats=True)
                (activation): ReLU(inplace=True)
                (depth_conv): Conv2d(68, 68, kernel_size=(5, 5), stride=(1, 1), padding=(2, 2), groups=68, bias=False)
                (point_conv): Conv2d(68, 68, kernel_size=(1, 1), stride=(1, 1), bias=False)
              )
              (1): DepthConvLayer(
                (bn): BatchNorm2d(68, eps=1e-05, momentum=0.1, affine=True, track_running_stats=True)
                (activation): ReLU(inplace=True)
                (depth_conv): Conv2d(68, 68, kernel_size=(3, 3), stride=(1, 1), padding=(1, 1), groups=68, bias=False)
                (point_conv): Conv2d(68, 68, kernel_size=(1, 1), stride=(1, 1), bias=False)
              )
            )
            (child_nodes): ModuleList(
              (0): TreeNode(
                (edges): ModuleList(
                  (0): DepthConvLayer(
                    (bn): BatchNorm2d(68, eps=1e-05, momentum=0.1, affine=True, track_running_stats=True)
                    (activation): ReLU(inplace=True)
                    (depth_conv): Conv2d(68, 68, kernel_size=(5, 5), stride=(1, 1), padding=(2, 2), groups=68, bias=False)
                    (point_conv): Conv2d(68, 68, kernel_size=(1, 1), stride=(1, 1), bias=False)
                  )
                  (1): PoolingLayer(
                    (pool): AvgPool2d(kernel_size=3, stride=1, padding=1)
                  )
                  (2): PoolingLayer(
                    (pool): AvgPool2d(kernel_size=3, stride=1, padding=1)
                  )
                )
                (child_nodes): ModuleList(
                  (0): None
                  (1): None
                  (2): None
                )
              )
              (1): TreeNode(
                (edges): ModuleList(
                  (0): PoolingLayer(
                    (pool): AvgPool2d(kernel_size=3, stride=1, padding=1)
                  )
                  (1): DepthConvLayer(
                    (bn): BatchNorm2d(68, eps=1e-05, momentum=0.1, affine=True, track_running_stats=True)
                    (activation): ReLU(inplace=True)
                    (depth_conv): Conv2d(68, 68, kernel_size=(3, 3), stride=(1, 1), padding=(1, 1), groups=68, bias=False)
                    (point_conv): Conv2d(68, 68, kernel_size=(1, 1), stride=(1, 1), bias=False)
                  )
                )
                (child_nodes): ModuleList(
                  (0): None
                  (1): None
                )
              )
            )
          )
        )
        (branch_bns): ModuleList(
          (0): BatchNorm2d(68, eps=1e-05, momentum=0.1, affine=True, track_running_stats=True)
          (1): BatchNorm2d(68, eps=1e-05, momentum=0.1, affine=True, track_running_stats=True)
        )
      )
      (in_bottle): ConvLayer(
        (bn): BatchNorm2d(264, eps=1e-05, momentum=0.1, affine=True, track_running_stats=True)
        (conv): Conv2d(264, 68, kernel_size=(1, 1), stride=(1, 1), bias=False)
      )
      (out_bottle): ConvLayer(
        (bn): BatchNorm2d(68, eps=1e-05, momentum=0.1, affine=True, track_running_stats=True)
        (activation): ReLU(inplace=True)
        (conv): Conv2d(68, 272, kernel_size=(1, 1), stride=(1, 1), bias=False)
      )
      (shortcut): PoolingLayer(
        (pool): AvgPool2d(kernel_size=2, stride=2, padding=0)
      )
      (final_bn): BatchNorm2d(272, eps=1e-05, momentum=0.1, affine=True, track_running_stats=True)
    )
    (20): ResidualBlock(
      (cell): TreeNode(
        (edges): ModuleList(
          (0): ConvLayer(
            (bn): BatchNorm2d(72, eps=1e-05, momentum=0.1, affine=True, track_running_stats=True)
            (activation): ReLU(inplace=True)
            (conv): Conv2d(72, 72, kernel_size=(3, 3), stride=(1, 1), padding=(1, 1), groups=2, bias=False)
          )
          (1): ConvLayer(
            (bn): BatchNorm2d(72, eps=1e-05, momentum=0.1, affine=True, track_running_stats=True)
            (activation): ReLU(inplace=True)
            (conv): Conv2d(72, 72, kernel_size=(3, 3), stride=(1, 1), padding=(1, 1), groups=2, bias=False)
          )
        )
        (child_nodes): ModuleList(
          (0): TreeNode(
            (edges): ModuleList(
              (0): ConvLayer(
                (bn): BatchNorm2d(72, eps=1e-05, momentum=0.1, affine=True, track_running_stats=True)
                (activation): ReLU(inplace=True)
                (conv): Conv2d(72, 72, kernel_size=(1, 1), stride=(1, 1), bias=False)
              )
              (1): PoolingLayer(
                (pool): MaxPool2d(kernel_size=3, stride=1, padding=1, dilation=1, ceil_mode=False)
              )
            )
            (child_nodes): ModuleList(
              (0): TreeNode(
                (edges): ModuleList(
                  (0): PoolingLayer(
                    (pool): AvgPool2d(kernel_size=3, stride=1, padding=1)
                  )
                  (1): DepthConvLayer(
                    (bn): BatchNorm2d(36, eps=1e-05, momentum=0.1, affine=True, track_running_stats=True)
                    (activation): ReLU(inplace=True)
                    (depth_conv): Conv2d(36, 36, kernel_size=(7, 7), stride=(1, 1), padding=(3, 3), groups=36, bias=False)
                    (point_conv): Conv2d(36, 36, kernel_size=(1, 1), stride=(1, 1), bias=False)
                  )
                )
                (child_nodes): ModuleList(
                  (0): None
                  (1): None
                )
              )
              (1): TreeNode(
                (edges): ModuleList(
                  (0): DepthConvLayer(
                    (bn): BatchNorm2d(72, eps=1e-05, momentum=0.1, affine=True, track_running_stats=True)
                    (activation): ReLU(inplace=True)
                    (depth_conv): Conv2d(72, 72, kernel_size=(3, 3), stride=(1, 1), padding=(1, 1), groups=72, bias=False)
                    (point_conv): Conv2d(72, 72, kernel_size=(1, 1), stride=(1, 1), bias=False)
                  )
                  (1): DepthConvLayer(
                    (bn): BatchNorm2d(72, eps=1e-05, momentum=0.1, affine=True, track_running_stats=True)
                    (activation): ReLU(inplace=True)
                    (depth_conv): Conv2d(72, 72, kernel_size=(5, 5), stride=(1, 1), padding=(2, 2), groups=72, bias=False)
                    (point_conv): Conv2d(72, 72, kernel_size=(1, 1), stride=(1, 1), bias=False)
                  )
                )
                (child_nodes): ModuleList(
                  (0): None
                  (1): None
                )
              )
            )
          )
          (1): TreeNode(
            (edges): ModuleList(
              (0): DepthConvLayer(
                (bn): BatchNorm2d(72, eps=1e-05, momentum=0.1, affine=True, track_running_stats=True)
                (activation): ReLU(inplace=True)
                (depth_conv): Conv2d(72, 72, kernel_size=(5, 5), stride=(1, 1), padding=(2, 2), groups=72, bias=False)
                (point_conv): Conv2d(72, 72, kernel_size=(1, 1), stride=(1, 1), bias=False)
              )
              (1): DepthConvLayer(
                (bn): BatchNorm2d(72, eps=1e-05, momentum=0.1, affine=True, track_running_stats=True)
                (activation): ReLU(inplace=True)
                (depth_conv): Conv2d(72, 72, kernel_size=(3, 3), stride=(1, 1), padding=(1, 1), groups=72, bias=False)
                (point_conv): Conv2d(72, 72, kernel_size=(1, 1), stride=(1, 1), bias=False)
              )
            )
            (child_nodes): ModuleList(
              (0): TreeNode(
                (edges): ModuleList(
                  (0): DepthConvLayer(
                    (bn): BatchNorm2d(72, eps=1e-05, momentum=0.1, affine=True, track_running_stats=True)
                    (activation): ReLU(inplace=True)
                    (depth_conv): Conv2d(72, 72, kernel_size=(5, 5), stride=(1, 1), padding=(2, 2), groups=72, bias=False)
                    (point_conv): Conv2d(72, 72, kernel_size=(1, 1), stride=(1, 1), bias=False)
                  )
                  (1): PoolingLayer(
                    (pool): AvgPool2d(kernel_size=3, stride=1, padding=1)
                  )
                  (2): PoolingLayer(
                    (pool): AvgPool2d(kernel_size=3, stride=1, padding=1)
                  )
                )
                (child_nodes): ModuleList(
                  (0): None
                  (1): None
                  (2): None
                )
              )
              (1): TreeNode(
                (edges): ModuleList(
                  (0): PoolingLayer(
                    (pool): AvgPool2d(kernel_size=3, stride=1, padding=1)
                  )
                  (1): DepthConvLayer(
                    (bn): BatchNorm2d(72, eps=1e-05, momentum=0.1, affine=True, track_running_stats=True)
                    (activation): ReLU(inplace=True)
                    (depth_conv): Conv2d(72, 72, kernel_size=(3, 3), stride=(1, 1), padding=(1, 1), groups=72, bias=False)
                    (point_conv): Conv2d(72, 72, kernel_size=(1, 1), stride=(1, 1), bias=False)
                  )
                )
                (child_nodes): ModuleList(
                  (0): None
                  (1): None
                )
              )
            )
          )
        )
        (branch_bns): ModuleList(
          (0): BatchNorm2d(72, eps=1e-05, momentum=0.1, affine=True, track_running_stats=True)
          (1): BatchNorm2d(72, eps=1e-05, momentum=0.1, affine=True, track_running_stats=True)
        )
      )
      (in_bottle): ConvLayer(
        (bn): BatchNorm2d(272, eps=1e-05, momentum=0.1, affine=True, track_running_stats=True)
        (conv): Conv2d(272, 72, kernel_size=(1, 1), stride=(1, 1), bias=False)
      )
      (out_bottle): ConvLayer(
        (bn): BatchNorm2d(72, eps=1e-05, momentum=0.1, affine=True, track_running_stats=True)
        (activation): ReLU(inplace=True)
        (conv): Conv2d(72, 288, kernel_size=(1, 1), stride=(1, 1), bias=False)
      )
      (shortcut): IdentityLayer()
      (final_bn): BatchNorm2d(288, eps=1e-05, momentum=0.1, affine=True, track_running_stats=True)
    )
    (21): ResidualBlock(
      (cell): TreeNode(
        (edges): ModuleList(
          (0): ConvLayer(
            (bn): BatchNorm2d(74, eps=1e-05, momentum=0.1, affine=True, track_running_stats=True)
            (activation): ReLU(inplace=True)
            (conv): Conv2d(74, 74, kernel_size=(3, 3), stride=(1, 1), padding=(1, 1), groups=2, bias=False)
          )
          (1): ConvLayer(
            (bn): BatchNorm2d(74, eps=1e-05, momentum=0.1, affine=True, track_running_stats=True)
            (activation): ReLU(inplace=True)
            (conv): Conv2d(74, 74, kernel_size=(3, 3), stride=(1, 1), padding=(1, 1), groups=2, bias=False)
          )
        )
        (child_nodes): ModuleList(
          (0): TreeNode(
            (edges): ModuleList(
              (0): ConvLayer(
                (bn): BatchNorm2d(74, eps=1e-05, momentum=0.1, affine=True, track_running_stats=True)
                (activation): ReLU(inplace=True)
                (conv): Conv2d(74, 74, kernel_size=(1, 1), stride=(1, 1), bias=False)
              )
              (1): PoolingLayer(
                (pool): MaxPool2d(kernel_size=3, stride=1, padding=1, dilation=1, ceil_mode=False)
              )
            )
            (child_nodes): ModuleList(
              (0): TreeNode(
                (edges): ModuleList(
                  (0): PoolingLayer(
                    (pool): AvgPool2d(kernel_size=3, stride=1, padding=1)
                  )
                  (1): DepthConvLayer(
                    (bn): BatchNorm2d(37, eps=1e-05, momentum=0.1, affine=True, track_running_stats=True)
                    (activation): ReLU(inplace=True)
                    (depth_conv): Conv2d(37, 37, kernel_size=(7, 7), stride=(1, 1), padding=(3, 3), groups=37, bias=False)
                    (point_conv): Conv2d(37, 37, kernel_size=(1, 1), stride=(1, 1), bias=False)
                  )
                )
                (child_nodes): ModuleList(
                  (0): None
                  (1): None
                )
              )
              (1): TreeNode(
                (edges): ModuleList(
                  (0): DepthConvLayer(
                    (bn): BatchNorm2d(74, eps=1e-05, momentum=0.1, affine=True, track_running_stats=True)
                    (activation): ReLU(inplace=True)
                    (depth_conv): Conv2d(74, 74, kernel_size=(3, 3), stride=(1, 1), padding=(1, 1), groups=74, bias=False)
                    (point_conv): Conv2d(74, 74, kernel_size=(1, 1), stride=(1, 1), bias=False)
                  )
                  (1): DepthConvLayer(
                    (bn): BatchNorm2d(74, eps=1e-05, momentum=0.1, affine=True, track_running_stats=True)
                    (activation): ReLU(inplace=True)
                    (depth_conv): Conv2d(74, 74, kernel_size=(5, 5), stride=(1, 1), padding=(2, 2), groups=74, bias=False)
                    (point_conv): Conv2d(74, 74, kernel_size=(1, 1), stride=(1, 1), bias=False)
                  )
                )
                (child_nodes): ModuleList(
                  (0): None
                  (1): None
                )
              )
            )
          )
          (1): TreeNode(
            (edges): ModuleList(
              (0): DepthConvLayer(
                (bn): BatchNorm2d(74, eps=1e-05, momentum=0.1, affine=True, track_running_stats=True)
                (activation): ReLU(inplace=True)
                (depth_conv): Conv2d(74, 74, kernel_size=(5, 5), stride=(1, 1), padding=(2, 2), groups=74, bias=False)
                (point_conv): Conv2d(74, 74, kernel_size=(1, 1), stride=(1, 1), bias=False)
              )
              (1): DepthConvLayer(
                (bn): BatchNorm2d(74, eps=1e-05, momentum=0.1, affine=True, track_running_stats=True)
                (activation): ReLU(inplace=True)
                (depth_conv): Conv2d(74, 74, kernel_size=(3, 3), stride=(1, 1), padding=(1, 1), groups=74, bias=False)
                (point_conv): Conv2d(74, 74, kernel_size=(1, 1), stride=(1, 1), bias=False)
              )
            )
            (child_nodes): ModuleList(
              (0): TreeNode(
                (edges): ModuleList(
                  (0): DepthConvLayer(
                    (bn): BatchNorm2d(74, eps=1e-05, momentum=0.1, affine=True, track_running_stats=True)
                    (activation): ReLU(inplace=True)
                    (depth_conv): Conv2d(74, 74, kernel_size=(5, 5), stride=(1, 1), padding=(2, 2), groups=74, bias=False)
                    (point_conv): Conv2d(74, 74, kernel_size=(1, 1), stride=(1, 1), bias=False)
                  )
                  (1): PoolingLayer(
                    (pool): AvgPool2d(kernel_size=3, stride=1, padding=1)
                  )
                  (2): PoolingLayer(
                    (pool): AvgPool2d(kernel_size=3, stride=1, padding=1)
                  )
                )
                (child_nodes): ModuleList(
                  (0): None
                  (1): None
                  (2): None
                )
              )
              (1): TreeNode(
                (edges): ModuleList(
                  (0): PoolingLayer(
                    (pool): AvgPool2d(kernel_size=3, stride=1, padding=1)
                  )
                  (1): DepthConvLayer(
                    (bn): BatchNorm2d(74, eps=1e-05, momentum=0.1, affine=True, track_running_stats=True)
                    (activation): ReLU(inplace=True)
                    (depth_conv): Conv2d(74, 74, kernel_size=(3, 3), stride=(1, 1), padding=(1, 1), groups=74, bias=False)
                    (point_conv): Conv2d(74, 74, kernel_size=(1, 1), stride=(1, 1), bias=False)
                  )
                )
                (child_nodes): ModuleList(
                  (0): None
                  (1): None
                )
              )
            )
          )
        )
        (branch_bns): ModuleList(
          (0): BatchNorm2d(74, eps=1e-05, momentum=0.1, affine=True, track_running_stats=True)
          (1): BatchNorm2d(74, eps=1e-05, momentum=0.1, affine=True, track_running_stats=True)
        )
      )
      (in_bottle): ConvLayer(
        (bn): BatchNorm2d(288, eps=1e-05, momentum=0.1, affine=True, track_running_stats=True)
        (conv): Conv2d(288, 74, kernel_size=(1, 1), stride=(1, 1), bias=False)
      )
      (out_bottle): ConvLayer(
        (bn): BatchNorm2d(74, eps=1e-05, momentum=0.1, affine=True, track_running_stats=True)
        (activation): ReLU(inplace=True)
        (conv): Conv2d(74, 296, kernel_size=(1, 1), stride=(1, 1), bias=False)
      )
      (shortcut): IdentityLayer()
      (final_bn): BatchNorm2d(296, eps=1e-05, momentum=0.1, affine=True, track_running_stats=True)
    )
    (22): ResidualBlock(
      (cell): TreeNode(
        (edges): ModuleList(
          (0): ConvLayer(
            (bn): BatchNorm2d(76, eps=1e-05, momentum=0.1, affine=True, track_running_stats=True)
            (activation): ReLU(inplace=True)
            (conv): Conv2d(76, 76, kernel_size=(3, 3), stride=(1, 1), padding=(1, 1), groups=2, bias=False)
          )
          (1): ConvLayer(
            (bn): BatchNorm2d(76, eps=1e-05, momentum=0.1, affine=True, track_running_stats=True)
            (activation): ReLU(inplace=True)
            (conv): Conv2d(76, 76, kernel_size=(3, 3), stride=(1, 1), padding=(1, 1), groups=2, bias=False)
          )
        )
        (child_nodes): ModuleList(
          (0): TreeNode(
            (edges): ModuleList(
              (0): ConvLayer(
                (bn): BatchNorm2d(76, eps=1e-05, momentum=0.1, affine=True, track_running_stats=True)
                (activation): ReLU(inplace=True)
                (conv): Conv2d(76, 76, kernel_size=(1, 1), stride=(1, 1), bias=False)
              )
              (1): PoolingLayer(
                (pool): MaxPool2d(kernel_size=3, stride=1, padding=1, dilation=1, ceil_mode=False)
              )
            )
            (child_nodes): ModuleList(
              (0): TreeNode(
                (edges): ModuleList(
                  (0): PoolingLayer(
                    (pool): AvgPool2d(kernel_size=3, stride=1, padding=1)
                  )
                  (1): DepthConvLayer(
                    (bn): BatchNorm2d(38, eps=1e-05, momentum=0.1, affine=True, track_running_stats=True)
                    (activation): ReLU(inplace=True)
                    (depth_conv): Conv2d(38, 38, kernel_size=(7, 7), stride=(1, 1), padding=(3, 3), groups=38, bias=False)
                    (point_conv): Conv2d(38, 38, kernel_size=(1, 1), stride=(1, 1), bias=False)
                  )
                )
                (child_nodes): ModuleList(
                  (0): None
                  (1): None
                )
              )
              (1): TreeNode(
                (edges): ModuleList(
                  (0): DepthConvLayer(
                    (bn): BatchNorm2d(76, eps=1e-05, momentum=0.1, affine=True, track_running_stats=True)
                    (activation): ReLU(inplace=True)
                    (depth_conv): Conv2d(76, 76, kernel_size=(3, 3), stride=(1, 1), padding=(1, 1), groups=76, bias=False)
                    (point_conv): Conv2d(76, 76, kernel_size=(1, 1), stride=(1, 1), bias=False)
                  )
                  (1): DepthConvLayer(
                    (bn): BatchNorm2d(76, eps=1e-05, momentum=0.1, affine=True, track_running_stats=True)
                    (activation): ReLU(inplace=True)
                    (depth_conv): Conv2d(76, 76, kernel_size=(5, 5), stride=(1, 1), padding=(2, 2), groups=76, bias=False)
                    (point_conv): Conv2d(76, 76, kernel_size=(1, 1), stride=(1, 1), bias=False)
                  )
                )
                (child_nodes): ModuleList(
                  (0): None
                  (1): None
                )
              )
            )
          )
          (1): TreeNode(
            (edges): ModuleList(
              (0): DepthConvLayer(
                (bn): BatchNorm2d(76, eps=1e-05, momentum=0.1, affine=True, track_running_stats=True)
                (activation): ReLU(inplace=True)
                (depth_conv): Conv2d(76, 76, kernel_size=(5, 5), stride=(1, 1), padding=(2, 2), groups=76, bias=False)
                (point_conv): Conv2d(76, 76, kernel_size=(1, 1), stride=(1, 1), bias=False)
              )
              (1): DepthConvLayer(
                (bn): BatchNorm2d(76, eps=1e-05, momentum=0.1, affine=True, track_running_stats=True)
                (activation): ReLU(inplace=True)
                (depth_conv): Conv2d(76, 76, kernel_size=(3, 3), stride=(1, 1), padding=(1, 1), groups=76, bias=False)
                (point_conv): Conv2d(76, 76, kernel_size=(1, 1), stride=(1, 1), bias=False)
              )
            )
            (child_nodes): ModuleList(
              (0): TreeNode(
                (edges): ModuleList(
                  (0): DepthConvLayer(
                    (bn): BatchNorm2d(76, eps=1e-05, momentum=0.1, affine=True, track_running_stats=True)
                    (activation): ReLU(inplace=True)
                    (depth_conv): Conv2d(76, 76, kernel_size=(5, 5), stride=(1, 1), padding=(2, 2), groups=76, bias=False)
                    (point_conv): Conv2d(76, 76, kernel_size=(1, 1), stride=(1, 1), bias=False)
                  )
                  (1): PoolingLayer(
                    (pool): AvgPool2d(kernel_size=3, stride=1, padding=1)
                  )
                  (2): PoolingLayer(
                    (pool): AvgPool2d(kernel_size=3, stride=1, padding=1)
                  )
                )
                (child_nodes): ModuleList(
                  (0): None
                  (1): None
                  (2): None
                )
              )
              (1): TreeNode(
                (edges): ModuleList(
                  (0): PoolingLayer(
                    (pool): AvgPool2d(kernel_size=3, stride=1, padding=1)
                  )
                  (1): DepthConvLayer(
                    (bn): BatchNorm2d(76, eps=1e-05, momentum=0.1, affine=True, track_running_stats=True)
                    (activation): ReLU(inplace=True)
                    (depth_conv): Conv2d(76, 76, kernel_size=(3, 3), stride=(1, 1), padding=(1, 1), groups=76, bias=False)
                    (point_conv): Conv2d(76, 76, kernel_size=(1, 1), stride=(1, 1), bias=False)
                  )
                )
                (child_nodes): ModuleList(
                  (0): None
                  (1): None
                )
              )
            )
          )
        )
        (branch_bns): ModuleList(
          (0): BatchNorm2d(76, eps=1e-05, momentum=0.1, affine=True, track_running_stats=True)
          (1): BatchNorm2d(76, eps=1e-05, momentum=0.1, affine=True, track_running_stats=True)
        )
      )
      (in_bottle): ConvLayer(
        (bn): BatchNorm2d(296, eps=1e-05, momentum=0.1, affine=True, track_running_stats=True)
        (conv): Conv2d(296, 76, kernel_size=(1, 1), stride=(1, 1), bias=False)
      )
      (out_bottle): ConvLayer(
        (bn): BatchNorm2d(76, eps=1e-05, momentum=0.1, affine=True, track_running_stats=True)
        (activation): ReLU(inplace=True)
        (conv): Conv2d(76, 304, kernel_size=(1, 1), stride=(1, 1), bias=False)
      )
      (shortcut): IdentityLayer()
      (final_bn): BatchNorm2d(304, eps=1e-05, momentum=0.1, affine=True, track_running_stats=True)
    )
    (23): ResidualBlock(
      (cell): TreeNode(
        (edges): ModuleList(
          (0): ConvLayer(
            (bn): BatchNorm2d(80, eps=1e-05, momentum=0.1, affine=True, track_running_stats=True)
            (activation): ReLU(inplace=True)
            (conv): Conv2d(80, 80, kernel_size=(3, 3), stride=(1, 1), padding=(1, 1), groups=2, bias=False)
          )
          (1): ConvLayer(
            (bn): BatchNorm2d(80, eps=1e-05, momentum=0.1, affine=True, track_running_stats=True)
            (activation): ReLU(inplace=True)
            (conv): Conv2d(80, 80, kernel_size=(3, 3), stride=(1, 1), padding=(1, 1), groups=2, bias=False)
          )
        )
        (child_nodes): ModuleList(
          (0): TreeNode(
            (edges): ModuleList(
              (0): ConvLayer(
                (bn): BatchNorm2d(80, eps=1e-05, momentum=0.1, affine=True, track_running_stats=True)
                (activation): ReLU(inplace=True)
                (conv): Conv2d(80, 80, kernel_size=(1, 1), stride=(1, 1), bias=False)
              )
              (1): PoolingLayer(
                (pool): MaxPool2d(kernel_size=3, stride=1, padding=1, dilation=1, ceil_mode=False)
              )
            )
            (child_nodes): ModuleList(
              (0): TreeNode(
                (edges): ModuleList(
                  (0): PoolingLayer(
                    (pool): AvgPool2d(kernel_size=3, stride=1, padding=1)
                  )
                  (1): DepthConvLayer(
                    (bn): BatchNorm2d(40, eps=1e-05, momentum=0.1, affine=True, track_running_stats=True)
                    (activation): ReLU(inplace=True)
                    (depth_conv): Conv2d(40, 40, kernel_size=(7, 7), stride=(1, 1), padding=(3, 3), groups=40, bias=False)
…
                    (pool): AvgPool2d(kernel_size=3, stride=1, padding=1)
                  )
                  (2): PoolingLayer(
                    (pool): AvgPool2d(kernel_size=3, stride=1, padding=1)
                  )
                )
                (child_nodes): ModuleList(
                  (0): None
                  (1): None
                  (2): None
                )
              )
              (1): TreeNode(
                (edges): ModuleList(
                  (0): PoolingLayer(
                    (pool): AvgPool2d(kernel_size=3, stride=1, padding=1)
                  )
                  (1): DepthConvLayer(
                    (bn): BatchNorm2d(146, eps=1e-05, momentum=0.1, affine=True, track_running_stats=True)
                    (activation): ReLU(inplace=True)
                    (depth_conv): Conv2d(146, 146, kernel_size=(3, 3), stride=(1, 1), padding=(1, 1), groups=146, bias=False)
                    (point_conv): Conv2d(146, 146, kernel_size=(1, 1), stride=(1, 1), bias=False)
                  )
                )
                (child_nodes): ModuleList(
                  (0): None
                  (1): None
                )
              )
            )
          )
        )
        (branch_bns): ModuleList(
          (0): BatchNorm2d(146, eps=1e-05, momentum=0.1, affine=True, track_running_stats=True)
          (1): BatchNorm2d(146, eps=1e-05, momentum=0.1, affine=True, track_running_stats=True)
        )
      )
      (in_bottle): ConvLayer(
        (bn): BatchNorm2d(576, eps=1e-05, momentum=0.1, affine=True, track_running_stats=True)
        (conv): Conv2d(576, 146, kernel_size=(1, 1), stride=(1, 1), bias=False)
      )
      (out_bottle): ConvLayer(
        (bn): BatchNorm2d(146, eps=1e-05, momentum=0.1, affine=True, track_running_stats=True)
        (activation): ReLU(inplace=True)
        (conv): Conv2d(146, 584, kernel_size=(1, 1), stride=(1, 1), bias=False)
      )
      (shortcut): IdentityLayer()
      (final_bn): BatchNorm2d(584, eps=1e-05, momentum=0.1, affine=True, track_running_stats=True)
    )
    (48): ResidualBlock(
      (cell): TreeNode(
        (edges): ModuleList(
          (0): ConvLayer(
            (bn): BatchNorm2d(148, eps=1e-05, momentum=0.1, affine=True, track_running_stats=True)
            (activation): ReLU(inplace=True)
            (conv): Conv2d(148, 148, kernel_size=(3, 3), stride=(1, 1), padding=(1, 1), groups=2, bias=False)
          )
          (1): ConvLayer(
            (bn): BatchNorm2d(148, eps=1e-05, momentum=0.1, affine=True, track_running_stats=True)
            (activation): ReLU(inplace=True)
            (conv): Conv2d(148, 148, kernel_size=(3, 3), stride=(1, 1), padding=(1, 1), groups=2, bias=False)
          )
        )
        (child_nodes): ModuleList(
          (0): TreeNode(
            (edges): ModuleList(
              (0): ConvLayer(
                (bn): BatchNorm2d(148, eps=1e-05, momentum=0.1, affine=True, track_running_stats=True)
                (activation): ReLU(inplace=True)
                (conv): Conv2d(148, 148, kernel_size=(1, 1), stride=(1, 1), bias=False)
              )
              (1): PoolingLayer(
                (pool): MaxPool2d(kernel_size=3, stride=1, padding=1, dilation=1, ceil_mode=False)
              )
            )
            (child_nodes): ModuleList(
              (0): TreeNode(
                (edges): ModuleList(
                  (0): PoolingLayer(
                    (pool): AvgPool2d(kernel_size=3, stride=1, padding=1)
                  )
                  (1): DepthConvLayer(
                    (bn): BatchNorm2d(74, eps=1e-05, momentum=0.1, affine=True, track_running_stats=True)
                    (activation): ReLU(inplace=True)
                    (depth_conv): Conv2d(74, 74, kernel_size=(7, 7), stride=(1, 1), padding=(3, 3), groups=74, bias=False)
                    (point_conv): Conv2d(74, 74, kernel_size=(1, 1), stride=(1, 1), bias=False)
                  )
                )
                (child_nodes): ModuleList(
                  (0): None
                  (1): None
                )
              )
              (1): TreeNode(
                (edges): ModuleList(
                  (0): DepthConvLayer(
                    (bn): BatchNorm2d(148, eps=1e-05, momentum=0.1, affine=True, track_running_stats=True)
                    (activation): ReLU(inplace=True)
                    (depth_conv): Conv2d(148, 148, kernel_size=(3, 3), stride=(1, 1), padding=(1, 1), groups=148, bias=False)
                    (point_conv): Conv2d(148, 148, kernel_size=(1, 1), stride=(1, 1), bias=False)
                  )
                  (1): DepthConvLayer(
                    (bn): BatchNorm2d(148, eps=1e-05, momentum=0.1, affine=True, track_running_stats=True)
                    (activation): ReLU(inplace=True)
                    (depth_conv): Conv2d(148, 148, kernel_size=(5, 5), stride=(1, 1), padding=(2, 2), groups=148, bias=False)
                    (point_conv): Conv2d(148, 148, kernel_size=(1, 1), stride=(1, 1), bias=False)
                  )
                )
                (child_nodes): ModuleList(
                  (0): None
                  (1): None
                )
              )
            )
          )
          (1): TreeNode(
            (edges): ModuleList(
              (0): DepthConvLayer(
                (bn): BatchNorm2d(148, eps=1e-05, momentum=0.1, affine=True, track_running_stats=True)
                (activation): ReLU(inplace=True)
                (depth_conv): Conv2d(148, 148, kernel_size=(5, 5), stride=(1, 1), padding=(2, 2), groups=148, bias=False)
                (point_conv): Conv2d(148, 148, kernel_size=(1, 1), stride=(1, 1), bias=False)
              )
              (1): DepthConvLayer(
                (bn): BatchNorm2d(148, eps=1e-05, momentum=0.1, affine=True, track_running_stats=True)
                (activation): ReLU(inplace=True)
                (depth_conv): Conv2d(148, 148, kernel_size=(3, 3), stride=(1, 1), padding=(1, 1), groups=148, bias=False)
                (point_conv): Conv2d(148, 148, kernel_size=(1, 1), stride=(1, 1), bias=False)
              )
            )
            (child_nodes): ModuleList(
              (0): TreeNode(
                (edges): ModuleList(
                  (0): DepthConvLayer(
                    (bn): BatchNorm2d(148, eps=1e-05, momentum=0.1, affine=True, track_running_stats=True)
                    (activation): ReLU(inplace=True)
                    (depth_conv): Conv2d(148, 148, kernel_size=(5, 5), stride=(1, 1), padding=(2, 2), groups=148, bias=False)
                    (point_conv): Conv2d(148, 148, kernel_size=(1, 1), stride=(1, 1), bias=False)
                  )
                  (1): PoolingLayer(
                    (pool): AvgPool2d(kernel_size=3, stride=1, padding=1)
                  )
                  (2): PoolingLayer(
                    (pool): AvgPool2d(kernel_size=3, stride=1, padding=1)
                  )
                )
                (child_nodes): ModuleList(
                  (0): None
                  (1): None
                  (2): None
                )
              )
              (1): TreeNode(
                (edges): ModuleList(
                  (0): PoolingLayer(
                    (pool): AvgPool2d(kernel_size=3, stride=1, padding=1)
                  )
                  (1): DepthConvLayer(
                    (bn): BatchNorm2d(148, eps=1e-05, momentum=0.1, affine=True, track_running_stats=True)
                    (activation): ReLU(inplace=True)
                    (depth_conv): Conv2d(148, 148, kernel_size=(3, 3), stride=(1, 1), padding=(1, 1), groups=148, bias=False)
                    (point_conv): Conv2d(148, 148, kernel_size=(1, 1), stride=(1, 1), bias=False)
                  )
                )
                (child_nodes): ModuleList(
                  (0): None
                  (1): None
                )
              )
            )
          )
        )
        (branch_bns): ModuleList(
          (0): BatchNorm2d(148, eps=1e-05, momentum=0.1, affine=True, track_running_stats=True)
          (1): BatchNorm2d(148, eps=1e-05, momentum=0.1, affine=True, track_running_stats=True)
        )
      )
      (in_bottle): ConvLayer(
        (bn): BatchNorm2d(584, eps=1e-05, momentum=0.1, affine=True, track_running_stats=True)
        (conv): Conv2d(584, 148, kernel_size=(1, 1), stride=(1, 1), bias=False)
      )
      (out_bottle): ConvLayer(
        (bn): BatchNorm2d(148, eps=1e-05, momentum=0.1, affine=True, track_running_stats=True)
        (activation): ReLU(inplace=True)
        (conv): Conv2d(148, 592, kernel_size=(1, 1), stride=(1, 1), bias=False)
      )
      (shortcut): IdentityLayer()
      (final_bn): BatchNorm2d(592, eps=1e-05, momentum=0.1, affine=True, track_running_stats=True)
    )
    (49): ResidualBlock(
      (cell): TreeNode(
        (edges): ModuleList(
          (0): ConvLayer(
            (bn): BatchNorm2d(152, eps=1e-05, momentum=0.1, affine=True, track_running_stats=True)
            (activation): ReLU(inplace=True)
            (conv): Conv2d(152, 152, kernel_size=(3, 3), stride=(1, 1), padding=(1, 1), groups=2, bias=False)
          )
          (1): ConvLayer(
            (bn): BatchNorm2d(152, eps=1e-05, momentum=0.1, affine=True, track_running_stats=True)
            (activation): ReLU(inplace=True)
            (conv): Conv2d(152, 152, kernel_size=(3, 3), stride=(1, 1), padding=(1, 1), groups=2, bias=False)
          )
        )
        (child_nodes): ModuleList(
          (0): TreeNode(
            (edges): ModuleList(
              (0): ConvLayer(
                (bn): BatchNorm2d(152, eps=1e-05, momentum=0.1, affine=True, track_running_stats=True)
                (activation): ReLU(inplace=True)
                (conv): Conv2d(152, 152, kernel_size=(1, 1), stride=(1, 1), bias=False)
              )
              (1): PoolingLayer(
                (pool): MaxPool2d(kernel_size=3, stride=1, padding=1, dilation=1, ceil_mode=False)
              )
            )
            (child_nodes): ModuleList(
              (0): TreeNode(
                (edges): ModuleList(
                  (0): PoolingLayer(
                    (pool): AvgPool2d(kernel_size=3, stride=1, padding=1)
                  )
                  (1): DepthConvLayer(
                    (bn): BatchNorm2d(76, eps=1e-05, momentum=0.1, affine=True, track_running_stats=True)
                    (activation): ReLU(inplace=True)
                    (depth_conv): Conv2d(76, 76, kernel_size=(7, 7), stride=(1, 1), padding=(3, 3), groups=76, bias=False)
                    (point_conv): Conv2d(76, 76, kernel_size=(1, 1), stride=(1, 1), bias=False)
                  )
                )
                (child_nodes): ModuleList(
                  (0): None
                  (1): None
                )
              )
              (1): TreeNode(
                (edges): ModuleList(
                  (0): DepthConvLayer(
                    (bn): BatchNorm2d(152, eps=1e-05, momentum=0.1, affine=True, track_running_stats=True)
                    (activation): ReLU(inplace=True)
                    (depth_conv): Conv2d(152, 152, kernel_size=(3, 3), stride=(1, 1), padding=(1, 1), groups=152, bias=False)
                    (point_conv): Conv2d(152, 152, kernel_size=(1, 1), stride=(1, 1), bias=False)
                  )
                  (1): DepthConvLayer(
                    (bn): BatchNorm2d(152, eps=1e-05, momentum=0.1, affine=True, track_running_stats=True)
                    (activation): ReLU(inplace=True)
                    (depth_conv): Conv2d(152, 152, kernel_size=(5, 5), stride=(1, 1), padding=(2, 2), groups=152, bias=False)
                    (point_conv): Conv2d(152, 152, kernel_size=(1, 1), stride=(1, 1), bias=False)
                  )
                )
                (child_nodes): ModuleList(
                  (0): None
                  (1): None
                )
              )
            )
          )
          (1): TreeNode(
            (edges): ModuleList(
              (0): DepthConvLayer(
                (bn): BatchNorm2d(152, eps=1e-05, momentum=0.1, affine=True, track_running_stats=True)
                (activation): ReLU(inplace=True)
                (depth_conv): Conv2d(152, 152, kernel_size=(5, 5), stride=(1, 1), padding=(2, 2), groups=152, bias=False)
                (point_conv): Conv2d(152, 152, kernel_size=(1, 1), stride=(1, 1), bias=False)
              )
              (1): DepthConvLayer(
                (bn): BatchNorm2d(152, eps=1e-05, momentum=0.1, affine=True, track_running_stats=True)
                (activation): ReLU(inplace=True)
                (depth_conv): Conv2d(152, 152, kernel_size=(3, 3), stride=(1, 1), padding=(1, 1), groups=152, bias=False)
                (point_conv): Conv2d(152, 152, kernel_size=(1, 1), stride=(1, 1), bias=False)
              )
            )
            (child_nodes): ModuleList(
              (0): TreeNode(
                (edges): ModuleList(
                  (0): DepthConvLayer(
                    (bn): BatchNorm2d(152, eps=1e-05, momentum=0.1, affine=True, track_running_stats=True)
                    (activation): ReLU(inplace=True)
                    (depth_conv): Conv2d(152, 152, kernel_size=(5, 5), stride=(1, 1), padding=(2, 2), groups=152, bias=False)
                    (point_conv): Conv2d(152, 152, kernel_size=(1, 1), stride=(1, 1), bias=False)
                  )
                  (1): PoolingLayer(
                    (pool): AvgPool2d(kernel_size=3, stride=1, padding=1)
                  )
                  (2): PoolingLayer(
                    (pool): AvgPool2d(kernel_size=3, stride=1, padding=1)
                  )
                )
                (child_nodes): ModuleList(
                  (0): None
                  (1): None
                  (2): None
                )
              )
              (1): TreeNode(
                (edges): ModuleList(
                  (0): PoolingLayer(
                    (pool): AvgPool2d(kernel_size=3, stride=1, padding=1)
                  )
                  (1): DepthConvLayer(
                    (bn): BatchNorm2d(152, eps=1e-05, momentum=0.1, affine=True, track_running_stats=True)
                    (activation): ReLU(inplace=True)
                    (depth_conv): Conv2d(152, 152, kernel_size=(3, 3), stride=(1, 1), padding=(1, 1), groups=152, bias=False)
                    (point_conv): Conv2d(152, 152, kernel_size=(1, 1), stride=(1, 1), bias=False)
                  )
                )
                (child_nodes): ModuleList(
                  (0): None
                  (1): None
                )
              )
            )
          )
        )
        (branch_bns): ModuleList(
          (0): BatchNorm2d(152, eps=1e-05, momentum=0.1, affine=True, track_running_stats=True)
          (1): BatchNorm2d(152, eps=1e-05, momentum=0.1, affine=True, track_running_stats=True)
        )
      )
      (in_bottle): ConvLayer(
        (bn): BatchNorm2d(592, eps=1e-05, momentum=0.1, affine=True, track_running_stats=True)
        (conv): Conv2d(592, 152, kernel_size=(1, 1), stride=(1, 1), bias=False)
      )
      (out_bottle): ConvLayer(
        (bn): BatchNorm2d(152, eps=1e-05, momentum=0.1, affine=True, track_running_stats=True)
        (activation): ReLU(inplace=True)
        (conv): Conv2d(152, 608, kernel_size=(1, 1), stride=(1, 1), bias=False)
      )
      (shortcut): IdentityLayer()
      (final_bn): BatchNorm2d(608, eps=1e-05, momentum=0.1, affine=True, track_running_stats=True)
    )
    (50): ResidualBlock(
      (cell): TreeNode(
        (edges): ModuleList(
          (0): ConvLayer(
            (bn): BatchNorm2d(154, eps=1e-05, momentum=0.1, affine=True, track_running_stats=True)
            (activation): ReLU(inplace=True)
            (conv): Conv2d(154, 154, kernel_size=(3, 3), stride=(1, 1), padding=(1, 1), groups=2, bias=False)
          )
          (1): ConvLayer(
            (bn): BatchNorm2d(154, eps=1e-05, momentum=0.1, affine=True, track_running_stats=True)
            (activation): ReLU(inplace=True)
            (conv): Conv2d(154, 154, kernel_size=(3, 3), stride=(1, 1), padding=(1, 1), groups=2, bias=False)
          )
        )
        (child_nodes): ModuleList(
          (0): TreeNode(
            (edges): ModuleList(
              (0): ConvLayer(
                (bn): BatchNorm2d(154, eps=1e-05, momentum=0.1, affine=True, track_running_stats=True)
                (activation): ReLU(inplace=True)
                (conv): Conv2d(154, 154, kernel_size=(1, 1), stride=(1, 1), bias=False)
              )
              (1): PoolingLayer(
                (pool): MaxPool2d(kernel_size=3, stride=1, padding=1, dilation=1, ceil_mode=False)
              )
            )
            (child_nodes): ModuleList(
              (0): TreeNode(
                (edges): ModuleList(
                  (0): PoolingLayer(
                    (pool): AvgPool2d(kernel_size=3, stride=1, padding=1)
                  )
                  (1): DepthConvLayer(
                    (bn): BatchNorm2d(77, eps=1e-05, momentum=0.1, affine=True, track_running_stats=True)
                    (activation): ReLU(inplace=True)
                    (depth_conv): Conv2d(77, 77, kernel_size=(7, 7), stride=(1, 1), padding=(3, 3), groups=77, bias=False)
                    (point_conv): Conv2d(77, 77, kernel_size=(1, 1), stride=(1, 1), bias=False)
                  )
                )
                (child_nodes): ModuleList(
                  (0): None
                  (1): None
                )
              )
              (1): TreeNode(
                (edges): ModuleList(
                  (0): DepthConvLayer(
                    (bn): BatchNorm2d(154, eps=1e-05, momentum=0.1, affine=True, track_running_stats=True)
                    (activation): ReLU(inplace=True)
                    (depth_conv): Conv2d(154, 154, kernel_size=(3, 3), stride=(1, 1), padding=(1, 1), groups=154, bias=False)
                    (point_conv): Conv2d(154, 154, kernel_size=(1, 1), stride=(1, 1), bias=False)
                  )
                  (1): DepthConvLayer(
                    (bn): BatchNorm2d(154, eps=1e-05, momentum=0.1, affine=True, track_running_stats=True)
                    (activation): ReLU(inplace=True)
                    (depth_conv): Conv2d(154, 154, kernel_size=(5, 5), stride=(1, 1), padding=(2, 2), groups=154, bias=False)
                    (point_conv): Conv2d(154, 154, kernel_size=(1, 1), stride=(1, 1), bias=False)
                  )
                )
                (child_nodes): ModuleList(
                  (0): None
                  (1): None
                )
              )
            )
          )
          (1): TreeNode(
            (edges): ModuleList(
              (0): DepthConvLayer(
                (bn): BatchNorm2d(154, eps=1e-05, momentum=0.1, affine=True, track_running_stats=True)
                (activation): ReLU(inplace=True)
                (depth_conv): Conv2d(154, 154, kernel_size=(5, 5), stride=(1, 1), padding=(2, 2), groups=154, bias=False)
                (point_conv): Conv2d(154, 154, kernel_size=(1, 1), stride=(1, 1), bias=False)
              )
              (1): DepthConvLayer(
                (bn): BatchNorm2d(154, eps=1e-05, momentum=0.1, affine=True, track_running_stats=True)
                (activation): ReLU(inplace=True)
                (depth_conv): Conv2d(154, 154, kernel_size=(3, 3), stride=(1, 1), padding=(1, 1), groups=154, bias=False)
                (point_conv): Conv2d(154, 154, kernel_size=(1, 1), stride=(1, 1), bias=False)
              )
            )
            (child_nodes): ModuleList(
              (0): TreeNode(
                (edges): ModuleList(
                  (0): DepthConvLayer(
                    (bn): BatchNorm2d(154, eps=1e-05, momentum=0.1, affine=True, track_running_stats=True)
                    (activation): ReLU(inplace=True)
                    (depth_conv): Conv2d(154, 154, kernel_size=(5, 5), stride=(1, 1), padding=(2, 2), groups=154, bias=False)
                    (point_conv): Conv2d(154, 154, kernel_size=(1, 1), stride=(1, 1), bias=False)
                  )
                  (1): PoolingLayer(
                    (pool): AvgPool2d(kernel_size=3, stride=1, padding=1)
                  )
                  (2): PoolingLayer(
                    (pool): AvgPool2d(kernel_size=3, stride=1, padding=1)
                  )
                )
                (child_nodes): ModuleList(
                  (0): None
                  (1): None
                  (2): None
                )
              )
              (1): TreeNode(
                (edges): ModuleList(
                  (0): PoolingLayer(
                    (pool): AvgPool2d(kernel_size=3, stride=1, padding=1)
                  )
                  (1): DepthConvLayer(
                    (bn): BatchNorm2d(154, eps=1e-05, momentum=0.1, affine=True, track_running_stats=True)
                    (activation): ReLU(inplace=True)
                    (depth_conv): Conv2d(154, 154, kernel_size=(3, 3), stride=(1, 1), padding=(1, 1), groups=154, bias=False)
                    (point_conv): Conv2d(154, 154, kernel_size=(1, 1), stride=(1, 1), bias=False)
                  )
                )
                (child_nodes): ModuleList(
                  (0): None
                  (1): None
                )
              )
            )
          )
        )
        (branch_bns): ModuleList(
          (0): BatchNorm2d(154, eps=1e-05, momentum=0.1, affine=True, track_running_stats=True)
          (1): BatchNorm2d(154, eps=1e-05, momentum=0.1, affine=True, track_running_stats=True)
        )
      )
      (in_bottle): ConvLayer(
        (bn): BatchNorm2d(608, eps=1e-05, momentum=0.1, affine=True, track_running_stats=True)
        (conv): Conv2d(608, 154, kernel_size=(1, 1), stride=(1, 1), bias=False)
      )
      (out_bottle): ConvLayer(
        (bn): BatchNorm2d(154, eps=1e-05, momentum=0.1, affine=True, track_running_stats=True)
        (activation): ReLU(inplace=True)
        (conv): Conv2d(154, 616, kernel_size=(1, 1), stride=(1, 1), bias=False)
      )
      (shortcut): IdentityLayer()
      (final_bn): BatchNorm2d(616, eps=1e-05, momentum=0.1, affine=True, track_running_stats=True)
    )
    (51): ResidualBlock(
      (cell): TreeNode(
        (edges): ModuleList(
          (0): ConvLayer(
            (bn): BatchNorm2d(158, eps=1e-05, momentum=0.1, affine=True, track_running_stats=True)
            (activation): ReLU(inplace=True)
            (conv): Conv2d(158, 158, kernel_size=(3, 3), stride=(1, 1), padding=(1, 1), groups=2, bias=False)
          )
          (1): ConvLayer(
            (bn): BatchNorm2d(158, eps=1e-05, momentum=0.1, affine=True, track_running_stats=True)
            (activation): ReLU(inplace=True)
            (conv): Conv2d(158, 158, kernel_size=(3, 3), stride=(1, 1), padding=(1, 1), groups=2, bias=False)
          )
        )
        (child_nodes): ModuleList(
          (0): TreeNode(
            (edges): ModuleList(
              (0): ConvLayer(
                (bn): BatchNorm2d(158, eps=1e-05, momentum=0.1, affine=True, track_running_stats=True)
                (activation): ReLU(inplace=True)
                (conv): Conv2d(158, 158, kernel_size=(1, 1), stride=(1, 1), bias=False)
              )
              (1): PoolingLayer(
                (pool): MaxPool2d(kernel_size=3, stride=1, padding=1, dilation=1, ceil_mode=False)
              )
            )
            (child_nodes): ModuleList(
              (0): TreeNode(
                (edges): ModuleList(
                  (0): PoolingLayer(
                    (pool): AvgPool2d(kernel_size=3, stride=1, padding=1)
                  )
                  (1): DepthConvLayer(
                    (bn): BatchNorm2d(79, eps=1e-05, momentum=0.1, affine=True, track_running_stats=True)
                    (activation): ReLU(inplace=True)
                    (depth_conv): Conv2d(79, 79, kernel_size=(7, 7), stride=(1, 1), padding=(3, 3), groups=79, bias=False)
                    (point_conv): Conv2d(79, 79, kernel_size=(1, 1), stride=(1, 1), bias=False)
                  )
                )
                (child_nodes): ModuleList(
                  (0): None
                  (1): None
                )
              )
              (1): TreeNode(
                (edges): ModuleList(
                  (0): DepthConvLayer(
                    (bn): BatchNorm2d(158, eps=1e-05, momentum=0.1, affine=True, track_running_stats=True)
                    (activation): ReLU(inplace=True)
                    (depth_conv): Conv2d(158, 158, kernel_size=(3, 3), stride=(1, 1), padding=(1, 1), groups=158, bias=False)
                    (point_conv): Conv2d(158, 158, kernel_size=(1, 1), stride=(1, 1), bias=False)
                  )
                  (1): DepthConvLayer(
                    (bn): BatchNorm2d(158, eps=1e-05, momentum=0.1, affine=True, track_running_stats=True)
                    (activation): ReLU(inplace=True)
                    (depth_conv): Conv2d(158, 158, kernel_size=(5, 5), stride=(1, 1), padding=(2, 2), groups=158, bias=False)
                    (point_conv): Conv2d(158, 158, kernel_size=(1, 1), stride=(1, 1), bias=False)
                  )
                )
                (child_nodes): ModuleList(
                  (0): None
                  (1): None
                )
              )
            )
          )
          (1): TreeNode(
            (edges): ModuleList(
              (0): DepthConvLayer(
                (bn): BatchNorm2d(158, eps=1e-05, momentum=0.1, affine=True, track_running_stats=True)
                (activation): ReLU(inplace=True)
                (depth_conv): Conv2d(158, 158, kernel_size=(5, 5), stride=(1, 1), padding=(2, 2), groups=158, bias=False)
                (point_conv): Conv2d(158, 158, kernel_size=(1, 1), stride=(1, 1), bias=False)
              )
              (1): DepthConvLayer(
                (bn): BatchNorm2d(158, eps=1e-05, momentum=0.1, affine=True, track_running_stats=True)
                (activation): ReLU(inplace=True)
                (depth_conv): Conv2d(158, 158, kernel_size=(3, 3), stride=(1, 1), padding=(1, 1), groups=158, bias=False)
                (point_conv): Conv2d(158, 158, kernel_size=(1, 1), stride=(1, 1), bias=False)
              )
            )
            (child_nodes): ModuleList(
              (0): TreeNode(
                (edges): ModuleList(
                  (0): DepthConvLayer(
                    (bn): BatchNorm2d(158, eps=1e-05, momentum=0.1, affine=True, track_running_stats=True)
                    (activation): ReLU(inplace=True)
                    (depth_conv): Conv2d(158, 158, kernel_size=(5, 5), stride=(1, 1), padding=(2, 2), groups=158, bias=False)
                    (point_conv): Conv2d(158, 158, kernel_size=(1, 1), stride=(1, 1), bias=False)
                  )
                  (1): PoolingLayer(
                    (pool): AvgPool2d(kernel_size=3, stride=1, padding=1)
                  )
                  (2): PoolingLayer(
                    (pool): AvgPool2d(kernel_size=3, stride=1, padding=1)
                  )
                )
                (child_nodes): ModuleList(
                  (0): None
                  (1): None
                  (2): None
                )
              )
              (1): TreeNode(
                (edges): ModuleList(
                  (0): PoolingLayer(
                    (pool): AvgPool2d(kernel_size=3, stride=1, padding=1)
                  )
                  (1): DepthConvLayer(
                    (bn): BatchNorm2d(158, eps=1e-05, momentum=0.1, affine=True, track_running_stats=True)
                    (activation): ReLU(inplace=True)
                    (depth_conv): Conv2d(158, 158, kernel_size=(3, 3), stride=(1, 1), padding=(1, 1), groups=158, bias=False)
                    (point_conv): Conv2d(158, 158, kernel_size=(1, 1), stride=(1, 1), bias=False)
                  )
                )
                (child_nodes): ModuleList(
                  (0): None
                  (1): None
                )
              )
            )
          )
        )
        (branch_bns): ModuleList(
          (0): BatchNorm2d(158, eps=1e-05, momentum=0.1, affine=True, track_running_stats=True)
          (1): BatchNorm2d(158, eps=1e-05, momentum=0.1, affine=True, track_running_stats=True)
        )
      )
      (in_bottle): ConvLayer(
        (bn): BatchNorm2d(616, eps=1e-05, momentum=0.1, affine=True, track_running_stats=True)
        (conv): Conv2d(616, 158, kernel_size=(1, 1), stride=(1, 1), bias=False)
      )
      (out_bottle): ConvLayer(
        (bn): BatchNorm2d(158, eps=1e-05, momentum=0.1, affine=True, track_running_stats=True)
        (activation): ReLU(inplace=True)
        (conv): Conv2d(158, 632, kernel_size=(1, 1), stride=(1, 1), bias=False)
      )
      (shortcut): IdentityLayer()
      (final_bn): BatchNorm2d(632, eps=1e-05, momentum=0.1, affine=True, track_running_stats=True)
    )
    (52): ResidualBlock(
      (cell): TreeNode(
        (edges): ModuleList(
          (0): ConvLayer(
            (bn): BatchNorm2d(160, eps=1e-05, momentum=0.1, affine=True, track_running_stats=True)
            (activation): ReLU(inplace=True)
            (conv): Conv2d(160, 160, kernel_size=(3, 3), stride=(1, 1), padding=(1, 1), groups=2, bias=False)
          )
          (1): ConvLayer(
            (bn): BatchNorm2d(160, eps=1e-05, momentum=0.1, affine=True, track_running_stats=True)
            (activation): ReLU(inplace=True)
            (conv): Conv2d(160, 160, kernel_size=(3, 3), stride=(1, 1), padding=(1, 1), groups=2, bias=False)
          )
        )
        (child_nodes): ModuleList(
          (0): TreeNode(
            (edges): ModuleList(
              (0): ConvLayer(
                (bn): BatchNorm2d(160, eps=1e-05, momentum=0.1, affine=True, track_running_stats=True)
                (activation): ReLU(inplace=True)
                (conv): Conv2d(160, 160, kernel_size=(1, 1), stride=(1, 1), bias=False)
              )
              (1): PoolingLayer(
                (pool): MaxPool2d(kernel_size=3, stride=1, padding=1, dilation=1, ceil_mode=False)
              )
            )
            (child_nodes): ModuleList(
              (0): TreeNode(
                (edges): ModuleList(
                  (0): PoolingLayer(
                    (pool): AvgPool2d(kernel_size=3, stride=1, padding=1)
                  )
                  (1): DepthConvLayer(
                    (bn): BatchNorm2d(80, eps=1e-05, momentum=0.1, affine=True, track_running_stats=True)
                    (activation): ReLU(inplace=True)
                    (depth_conv): Conv2d(80, 80, kernel_size=(7, 7), stride=(1, 1), padding=(3, 3), groups=80, bias=False)
                    (point_conv): Conv2d(80, 80, kernel_size=(1, 1), stride=(1, 1), bias=False)
                  )
                )
                (child_nodes): ModuleList(
                  (0): None
                  (1): None
                )
              )
              (1): TreeNode(
                (edges): ModuleList(
                  (0): DepthConvLayer(
                    (bn): BatchNorm2d(160, eps=1e-05, momentum=0.1, affine=True, track_running_stats=True)
                    (activation): ReLU(inplace=True)
                    (depth_conv): Conv2d(160, 160, kernel_size=(3, 3), stride=(1, 1), padding=(1, 1), groups=160, bias=False)
                    (point_conv): Conv2d(160, 160, kernel_size=(1, 1), stride=(1, 1), bias=False)
                  )
                  (1): DepthConvLayer(
                    (bn): BatchNorm2d(160, eps=1e-05, momentum=0.1, affine=True, track_running_stats=True)
                    (activation): ReLU(inplace=True)
                    (depth_conv): Conv2d(160, 160, kernel_size=(5, 5), stride=(1, 1), padding=(2, 2), groups=160, bias=False)
                    (point_conv): Conv2d(160, 160, kernel_size=(1, 1), stride=(1, 1), bias=False)
                  )
                )
                (child_nodes): ModuleList(
                  (0): None
                  (1): None
                )
              )
            )
          )
          (1): TreeNode(
            (edges): ModuleList(
              (0): DepthConvLayer(
                (bn): BatchNorm2d(160, eps=1e-05, momentum=0.1, affine=True, track_running_stats=True)
                (activation): ReLU(inplace=True)
                (depth_conv): Conv2d(160, 160, kernel_size=(5, 5), stride=(1, 1), padding=(2, 2), groups=160, bias=False)
                (point_conv): Conv2d(160, 160, kernel_size=(1, 1), stride=(1, 1), bias=False)
              )
              (1): DepthConvLayer(
                (bn): BatchNorm2d(160, eps=1e-05, momentum=0.1, affine=True, track_running_stats=True)
                (activation): ReLU(inplace=True)
                (depth_conv): Conv2d(160, 160, kernel_size=(3, 3), stride=(1, 1), padding=(1, 1), groups=160, bias=False)
                (point_conv): Conv2d(160, 160, kernel_size=(1, 1), stride=(1, 1), bias=False)
              )
            )
            (child_nodes): ModuleList(
              (0): TreeNode(
                (edges): ModuleList(
                  (0): DepthConvLayer(
                    (bn): BatchNorm2d(160, eps=1e-05, momentum=0.1, affine=True, track_running_stats=True)
                    (activation): ReLU(inplace=True)
                    (depth_conv): Conv2d(160, 160, kernel_size=(5, 5), stride=(1, 1), padding=(2, 2), groups=160, bias=False)
                    (point_conv): Conv2d(160, 160, kernel_size=(1, 1), stride=(1, 1), bias=False)
                  )
                  (1): PoolingLayer(
                    (pool): AvgPool2d(kernel_size=3, stride=1, padding=1)
                  )
                  (2): PoolingLayer(
                    (pool): AvgPool2d(kernel_size=3, stride=1, padding=1)
                  )
                )
                (child_nodes): ModuleList(
                  (0): None
                  (1): None
                  (2): None
                )
              )
              (1): TreeNode(
                (edges): ModuleList(
                  (0): PoolingLayer(
                    (pool): AvgPool2d(kernel_size=3, stride=1, padding=1)
                  )
                  (1): DepthConvLayer(
                    (bn): BatchNorm2d(160, eps=1e-05, momentum=0.1, affine=True, track_running_stats=True)
                    (activation): ReLU(inplace=True)
                    (depth_conv): Conv2d(160, 160, kernel_size=(3, 3), stride=(1, 1), padding=(1, 1), groups=160, bias=False)
                    (point_conv): Conv2d(160, 160, kernel_size=(1, 1), stride=(1, 1), bias=False)
                  )
                )
                (child_nodes): ModuleList(
                  (0): None
                  (1): None
                )
              )
            )
          )
        )
        (branch_bns): ModuleList(
          (0): BatchNorm2d(160, eps=1e-05, momentum=0.1, affine=True, track_running_stats=True)
          (1): BatchNorm2d(160, eps=1e-05, momentum=0.1, affine=True, track_running_stats=True)
        )
      )
      (in_bottle): ConvLayer(
        (bn): BatchNorm2d(632, eps=1e-05, momentum=0.1, affine=True, track_running_stats=True)
        (conv): Conv2d(632, 160, kernel_size=(1, 1), stride=(1, 1), bias=False)
      )
      (out_bottle): ConvLayer(
        (bn): BatchNorm2d(160, eps=1e-05, momentum=0.1, affine=True, track_running_stats=True)
        (activation): ReLU(inplace=True)
        (conv): Conv2d(160, 640, kernel_size=(1, 1), stride=(1, 1), bias=False)
      )
      (shortcut): IdentityLayer()
      (final_bn): BatchNorm2d(640, eps=1e-05, momentum=0.1, affine=True, track_running_stats=True)
    )
    (53): ResidualBlock(
      (cell): TreeNode(
        (edges): ModuleList(
          (0): ConvLayer(
            (bn): BatchNorm2d(162, eps=1e-05, momentum=0.1, affine=True, track_running_stats=True)
            (activation): ReLU(inplace=True)
            (conv): Conv2d(162, 162, kernel_size=(3, 3), stride=(1, 1), padding=(1, 1), groups=2, bias=False)
          )
          (1): ConvLayer(
            (bn): BatchNorm2d(162, eps=1e-05, momentum=0.1, affine=True, track_running_stats=True)
            (activation): ReLU(inplace=True)
            (conv): Conv2d(162, 162, kernel_size=(3, 3), stride=(1, 1), padding=(1, 1), groups=2, bias=False)
          )
        )
        (child_nodes): ModuleList(
          (0): TreeNode(
            (edges): ModuleList(
              (0): ConvLayer(
                (bn): BatchNorm2d(162, eps=1e-05, momentum=0.1, affine=True, track_running_stats=True)
                (activation): ReLU(inplace=True)
                (conv): Conv2d(162, 162, kernel_size=(1, 1), stride=(1, 1), bias=False)
              )
              (1): PoolingLayer(
                (pool): MaxPool2d(kernel_size=3, stride=1, padding=1, dilation=1, ceil_mode=False)
              )
            )
            (child_nodes): ModuleList(
              (0): TreeNode(
                (edges): ModuleList(
                  (0): PoolingLayer(
                    (pool): AvgPool2d(kernel_size=3, stride=1, padding=1)
                  )
                  (1): DepthConvLayer(
                    (bn): BatchNorm2d(81, eps=1e-05, momentum=0.1, affine=True, track_running_stats=True)
                    (activation): ReLU(inplace=True)
                    (depth_conv): Conv2d(81, 81, kernel_size=(7, 7), stride=(1, 1), padding=(3, 3), groups=81, bias=False)
                    (point_conv): Conv2d(81, 81, kernel_size=(1, 1), stride=(1, 1), bias=False)
                  )
                )
                (child_nodes): ModuleList(
                  (0): None
                  (1): None
                )
              )
              (1): TreeNode(
                (edges): ModuleList(
                  (0): DepthConvLayer(
                    (bn): BatchNorm2d(162, eps=1e-05, momentum=0.1, affine=True, track_running_stats=True)
                    (activation): ReLU(inplace=True)
                    (depth_conv): Conv2d(162, 162, kernel_size=(3, 3), stride=(1, 1), padding=(1, 1), groups=162, bias=False)
                    (point_conv): Conv2d(162, 162, kernel_size=(1, 1), stride=(1, 1), bias=False)
                  )
                  (1): DepthConvLayer(
                    (bn): BatchNorm2d(162, eps=1e-05, momentum=0.1, affine=True, track_running_stats=True)
                    (activation): ReLU(inplace=True)
                    (depth_conv): Conv2d(162, 162, kernel_size=(5, 5), stride=(1, 1), padding=(2, 2), groups=162, bias=False)
                    (point_conv): Conv2d(162, 162, kernel_size=(1, 1), stride=(1, 1), bias=False)
                  )
                )
                (child_nodes): ModuleList(
                  (0): None
                  (1): None
                )
              )
            )
          )
          (1): TreeNode(
            (edges): ModuleList(
              (0): DepthConvLayer(
                (bn): BatchNorm2d(162, eps=1e-05, momentum=0.1, affine=True, track_running_stats=True)
                (activation): ReLU(inplace=True)
                (depth_conv): Conv2d(162, 162, kernel_size=(5, 5), stride=(1, 1), padding=(2, 2), groups=162, bias=False)
                (point_conv): Conv2d(162, 162, kernel_size=(1, 1), stride=(1, 1), bias=False)
              )
              (1): DepthConvLayer(
                (bn): BatchNorm2d(162, eps=1e-05, momentum=0.1, affine=True, track_running_stats=True)
                (activation): ReLU(inplace=True)
                (depth_conv): Conv2d(162, 162, kernel_size=(3, 3), stride=(1, 1), padding=(1, 1), groups=162, bias=False)
                (point_conv): Conv2d(162, 162, kernel_size=(1, 1), stride=(1, 1), bias=False)
              )
            )
            (child_nodes): ModuleList(
              (0): TreeNode(
                (edges): ModuleList(
                  (0): DepthConvLayer(
                    (bn): BatchNorm2d(162, eps=1e-05, momentum=0.1, affine=True, track_running_stats=True)
                    (activation): ReLU(inplace=True)
                    (depth_conv): Conv2d(162, 162, kernel_size=(5, 5), stride=(1, 1), padding=(2, 2), groups=162, bias=False)
                    (point_conv): Conv2d(162, 162, kernel_size=(1, 1), stride=(1, 1), bias=False)
                  )
                  (1): PoolingLayer(
                    (pool): AvgPool2d(kernel_size=3, stride=1, padding=1)
                  )
                  (2): PoolingLayer(
                    (pool): AvgPool2d(kernel_size=3, stride=1, padding=1)
                  )
                )
                (child_nodes): ModuleList(
                  (0): None
                  (1): None
                  (2): None
                )
              )
              (1): TreeNode(
                (edges): ModuleList(
                  (0): PoolingLayer(
                    (pool): AvgPool2d(kernel_size=3, stride=1, padding=1)
                  )
                  (1): DepthConvLayer(
                    (bn): BatchNorm2d(162, eps=1e-05, momentum=0.1, affine=True, track_running_stats=True)
                    (activation): ReLU(inplace=True)
                    (depth_conv): Conv2d(162, 162, kernel_size=(3, 3), stride=(1, 1), padding=(1, 1), groups=162, bias=False)
                    (point_conv): Conv2d(162, 162, kernel_size=(1, 1), stride=(1, 1), bias=False)
                  )
                )
                (child_nodes): ModuleList(
                  (0): None
                  (1): None
                )
              )
            )
          )
        )
        (branch_bns): ModuleList(
          (0): BatchNorm2d(162, eps=1e-05, momentum=0.1, affine=True, track_running_stats=True)
          (1): BatchNorm2d(162, eps=1e-05, momentum=0.1, affine=True, track_running_stats=True)
        )
      )
      (in_bottle): ConvLayer(
        (bn): BatchNorm2d(640, eps=1e-05, momentum=0.1, affine=True, track_running_stats=True)
        (conv): Conv2d(640, 162, kernel_size=(1, 1), stride=(1, 1), bias=False)
      )
      (out_bottle): ConvLayer(
        (bn): BatchNorm2d(162, eps=1e-05, momentum=0.1, affine=True, track_running_stats=True)
        (activation): ReLU(inplace=True)
        (conv): Conv2d(162, 648, kernel_size=(1, 1), stride=(1, 1), bias=False)
      )
      (shortcut): IdentityLayer()
      (final_bn): BatchNorm2d(648, eps=1e-05, momentum=0.1, affine=True, track_running_stats=True)
    )
    (54): ResidualBlock(
      (cell): TreeNode(
        (edges): ModuleList(
          (0): ConvLayer(
            (bn): BatchNorm2d(166, eps=1e-05, momentum=0.1, affine=True, track_running_stats=True)
            (activation): ReLU(inplace=True)
            (conv): Conv2d(166, 166, kernel_size=(3, 3), stride=(1, 1), padding=(1, 1), groups=2, bias=False)
          )
          (1): ConvLayer(
            (bn): BatchNorm2d(166, eps=1e-05, momentum=0.1, affine=True, track_running_stats=True)
            (activation): ReLU(inplace=True)
            (conv): Conv2d(166, 166, kernel_size=(3, 3), stride=(1, 1), padding=(1, 1), groups=2, bias=False)
          )
        )
        (child_nodes): ModuleList(
          (0): TreeNode(
            (edges): ModuleList(
              (0): ConvLayer(
                (bn): BatchNorm2d(166, eps=1e-05, momentum=0.1, affine=True, track_running_stats=True)
                (activation): ReLU(inplace=True)
                (conv): Conv2d(166, 166, kernel_size=(1, 1), stride=(1, 1), bias=False)
              )
              (1): PoolingLayer(
                (pool): MaxPool2d(kernel_size=3, stride=1, padding=1, dilation=1, ceil_mode=False)
              )
            )
            (child_nodes): ModuleList(
              (0): TreeNode(
                (edges): ModuleList(
                  (0): PoolingLayer(
                    (pool): AvgPool2d(kernel_size=3, stride=1, padding=1)
                  )
                  (1): DepthConvLayer(
                    (bn): BatchNorm2d(83, eps=1e-05, momentum=0.1, affine=True, track_running_stats=True)
                    (activation): ReLU(inplace=True)
                    (depth_conv): Conv2d(83, 83, kernel_size=(7, 7), stride=(1, 1), padding=(3, 3), groups=83, bias=False)
                    (point_conv): Conv2d(83, 83, kernel_size=(1, 1), stride=(1, 1), bias=False)
                  )
                )
                (child_nodes): ModuleList(
                  (0): None
                  (1): None
                )
              )
              (1): TreeNode(
                (edges): ModuleList(
                  (0): DepthConvLayer(
                    (bn): BatchNorm2d(166, eps=1e-05, momentum=0.1, affine=True, track_running_stats=True)
                    (activation): ReLU(inplace=True)
                    (depth_conv): Conv2d(166, 166, kernel_size=(3, 3), stride=(1, 1), padding=(1, 1), groups=166, bias=False)
                    (point_conv): Conv2d(166, 166, kernel_size=(1, 1), stride=(1, 1), bias=False)
                  )
                  (1): DepthConvLayer(
                    (bn): BatchNorm2d(166, eps=1e-05, momentum=0.1, affine=True, track_running_stats=True)
                    (activation): ReLU(inplace=True)
                    (depth_conv): Conv2d(166, 166, kernel_size=(5, 5), stride=(1, 1), padding=(2, 2), groups=166, bias=False)
                    (point_conv): Conv2d(166, 166, kernel_size=(1, 1), stride=(1, 1), bias=False)
                  )
                )
                (child_nodes): ModuleList(
                  (0): None
                  (1): None
                )
              )
            )
          )
          (1): TreeNode(
            (edges): ModuleList(
              (0): DepthConvLayer(
                (bn): BatchNorm2d(166, eps=1e-05, momentum=0.1, affine=True, track_running_stats=True)
                (activation): ReLU(inplace=True)
                (depth_conv): Conv2d(166, 166, kernel_size=(5, 5), stride=(1, 1), padding=(2, 2), groups=166, bias=False)
                (point_conv): Conv2d(166, 166, kernel_size=(1, 1), stride=(1, 1), bias=False)
              )
              (1): DepthConvLayer(
                (bn): BatchNorm2d(166, eps=1e-05, momentum=0.1, affine=True, track_running_stats=True)
                (activation): ReLU(inplace=True)
                (depth_conv): Conv2d(166, 166, kernel_size=(3, 3), stride=(1, 1), padding=(1, 1), groups=166, bias=False)
                (point_conv): Conv2d(166, 166, kernel_size=(1, 1), stride=(1, 1), bias=False)
              )
            )
            (child_nodes): ModuleList(
              (0): TreeNode(
                (edges): ModuleList(
                  (0): DepthConvLayer(
                    (bn): BatchNorm2d(166, eps=1e-05, momentum=0.1, affine=True, track_running_stats=True)
                    (activation): ReLU(inplace=True)
                    (depth_conv): Conv2d(166, 166, kernel_size=(5, 5), stride=(1, 1), padding=(2, 2), groups=166, bias=False)
                    (point_conv): Conv2d(166, 166, kernel_size=(1, 1), stride=(1, 1), bias=False)
                  )
                  (1): PoolingLayer(
                    (pool): AvgPool2d(kernel_size=3, stride=1, padding=1)
                  )
                  (2): PoolingLayer(
                    (pool): AvgPool2d(kernel_size=3, stride=1, padding=1)
                  )
                )
                (child_nodes): ModuleList(
                  (0): None
                  (1): None
                  (2): None
                )
              )
              (1): TreeNode(
                (edges): ModuleList(
                  (0): PoolingLayer(
                    (pool): AvgPool2d(kernel_size=3, stride=1, padding=1)
                  )
                  (1): DepthConvLayer(
                    (bn): BatchNorm2d(166, eps=1e-05, momentum=0.1, affine=True, track_running_stats=True)
                    (activation): ReLU(inplace=True)
                    (depth_conv): Conv2d(166, 166, kernel_size=(3, 3), stride=(1, 1), padding=(1, 1), groups=166, bias=False)
                    (point_conv): Conv2d(166, 166, kernel_size=(1, 1), stride=(1, 1), bias=False)
                  )
                )
                (child_nodes): ModuleList(
                  (0): None
                  (1): None
                )
              )
            )
          )
        )
        (branch_bns): ModuleList(
          (0): BatchNorm2d(166, eps=1e-05, momentum=0.1, affine=True, track_running_stats=True)
          (1): BatchNorm2d(166, eps=1e-05, momentum=0.1, affine=True, track_running_stats=True)
        )
      )
      (in_bottle): ConvLayer(
        (bn): BatchNorm2d(648, eps=1e-05, momentum=0.1, affine=True, track_running_stats=True)
        (conv): Conv2d(648, 166, kernel_size=(1, 1), stride=(1, 1), bias=False)
      )
      (out_bottle): ConvLayer(
        (bn): BatchNorm2d(166, eps=1e-05, momentum=0.1, affine=True, track_running_stats=True)
        (activation): ReLU(inplace=True)
        (conv): Conv2d(166, 664, kernel_size=(1, 1), stride=(1, 1), bias=False)
      )
      (shortcut): IdentityLayer()
      (final_bn): BatchNorm2d(664, eps=1e-05, momentum=0.1, affine=True, track_running_stats=True)
    )
    (55): TransitionBlock(
      (layers): ModuleList(
        (0): PoolingLayer(
          (bn): BatchNorm2d(664, eps=1e-05, momentum=0.1, affine=True, track_running_stats=True)
          (activation): ReLU(inplace=True)
          (pool): AvgPool2d(kernel_size=8, stride=8, padding=0)
        )
      )
    )
  )
  (classifier): LinearLayer(
    (linear): Linear(in_features=664, out_features=10, bias=True)
  )
)
Network configs dump to /home/ticao/v-wjiany/PathLevel-EAS/Nets/CIFAR10#PyramidTreeCellA#N=18_alpha=150#600#cutout/checkpoint
Run configs dump to /home/ticao/v-wjiany/PathLevel-EAS/Nets/CIFAR10#PyramidTreeCellA#N=18_alpha=150#600#cutout/run.config

 ------------------------------ Train epoch: 0 ------------------------------ 

Traceback (most recent call last):
…
